Model: "functional_1"
__________________________________________________________________________________________________
Layer (type)                    Output Shape         Param #     Connected to                     
==================================================================================================
input_1 (InputLayer)            [(None, 256, 256, 3) 0                                            
__________________________________________________________________________________________________
conv2d (Conv2D)                 (None, 256, 256, 16) 432         input_1[0][0]                    
__________________________________________________________________________________________________
batch_normalization (BatchNorma (None, 256, 256, 16) 64          conv2d[0][0]                     
__________________________________________________________________________________________________
tf_op_layer_Softplus (TensorFlo [(None, 256, 256, 16 0           batch_normalization[0][0]        
__________________________________________________________________________________________________
tf_op_layer_Tanh (TensorFlowOpL [(None, 256, 256, 16 0           tf_op_layer_Softplus[0][0]       
__________________________________________________________________________________________________
tf_op_layer_Mul (TensorFlowOpLa [(None, 256, 256, 16 0           batch_normalization[0][0]        
                                                                 tf_op_layer_Tanh[0][0]           
__________________________________________________________________________________________________
conv2d_1 (Conv2D)               (None, 256, 256, 16) 2304        tf_op_layer_Mul[0][0]            
__________________________________________________________________________________________________
batch_normalization_1 (BatchNor (None, 256, 256, 16) 64          conv2d_1[0][0]                   
__________________________________________________________________________________________________
tf_op_layer_Softplus_1 (TensorF [(None, 256, 256, 16 0           batch_normalization_1[0][0]      
__________________________________________________________________________________________________
tf_op_layer_Tanh_1 (TensorFlowO [(None, 256, 256, 16 0           tf_op_layer_Softplus_1[0][0]     
__________________________________________________________________________________________________
tf_op_layer_Mul_1 (TensorFlowOp [(None, 256, 256, 16 0           batch_normalization_1[0][0]      
                                                                 tf_op_layer_Tanh_1[0][0]         
__________________________________________________________________________________________________
conv2d_4 (Conv2D)               (None, 256, 256, 32) 4608        tf_op_layer_Mul_1[0][0]          
__________________________________________________________________________________________________
batch_normalization_3 (BatchNor (None, 256, 256, 32) 128         conv2d_4[0][0]                   
__________________________________________________________________________________________________
tf_op_layer_Softplus_2 (TensorF [(None, 256, 256, 32 0           batch_normalization_3[0][0]      
__________________________________________________________________________________________________
tf_op_layer_Tanh_2 (TensorFlowO [(None, 256, 256, 32 0           tf_op_layer_Softplus_2[0][0]     
__________________________________________________________________________________________________
tf_op_layer_Mul_2 (TensorFlowOp [(None, 256, 256, 32 0           batch_normalization_3[0][0]      
                                                                 tf_op_layer_Tanh_2[0][0]         
__________________________________________________________________________________________________
dropout (Dropout)               (None, 256, 256, 32) 0           tf_op_layer_Mul_2[0][0]          
__________________________________________________________________________________________________
conv2d_5 (Conv2D)               (None, 256, 256, 32) 9216        dropout[0][0]                    
__________________________________________________________________________________________________
batch_normalization_4 (BatchNor (None, 256, 256, 32) 128         conv2d_5[0][0]                   
__________________________________________________________________________________________________
max_pooling2d (MaxPooling2D)    (None, 128, 128, 32) 0           batch_normalization_4[0][0]      
__________________________________________________________________________________________________
conv2d_2 (Conv2D)               (None, 128, 128, 32) 512         tf_op_layer_Mul_1[0][0]          
__________________________________________________________________________________________________
add (Add)                       (None, 128, 128, 32) 0           max_pooling2d[0][0]              
                                                                 conv2d_2[0][0]                   
__________________________________________________________________________________________________
tf_op_layer_Softplus_3 (TensorF [(None, 128, 128, 32 0           add[0][0]                        
__________________________________________________________________________________________________
tf_op_layer_Tanh_3 (TensorFlowO [(None, 128, 128, 32 0           tf_op_layer_Softplus_3[0][0]     
__________________________________________________________________________________________________
tf_op_layer_Mul_3 (TensorFlowOp [(None, 128, 128, 32 0           add[0][0]                        
                                                                 tf_op_layer_Tanh_3[0][0]         
__________________________________________________________________________________________________
conv2d_6 (Conv2D)               (None, 128, 128, 32) 9216        tf_op_layer_Mul_3[0][0]          
__________________________________________________________________________________________________
batch_normalization_5 (BatchNor (None, 128, 128, 32) 128         conv2d_6[0][0]                   
__________________________________________________________________________________________________
tf_op_layer_Softplus_4 (TensorF [(None, 128, 128, 32 0           batch_normalization_5[0][0]      
__________________________________________________________________________________________________
tf_op_layer_Tanh_4 (TensorFlowO [(None, 128, 128, 32 0           tf_op_layer_Softplus_4[0][0]     
__________________________________________________________________________________________________
tf_op_layer_Mul_4 (TensorFlowOp [(None, 128, 128, 32 0           batch_normalization_5[0][0]      
                                                                 tf_op_layer_Tanh_4[0][0]         
__________________________________________________________________________________________________
dropout_1 (Dropout)             (None, 128, 128, 32) 0           tf_op_layer_Mul_4[0][0]          
__________________________________________________________________________________________________
conv2d_7 (Conv2D)               (None, 128, 128, 32) 9216        dropout_1[0][0]                  
__________________________________________________________________________________________________
batch_normalization_6 (BatchNor (None, 128, 128, 32) 128         conv2d_7[0][0]                   
__________________________________________________________________________________________________
global_average_pooling2d (Globa (None, 32)           0           batch_normalization_6[0][0]      
__________________________________________________________________________________________________
dense (Dense)                   (None, 8)            264         global_average_pooling2d[0][0]   
__________________________________________________________________________________________________
tf_op_layer_Softplus_5 (TensorF [(None, 8)]          0           dense[0][0]                      
__________________________________________________________________________________________________
tf_op_layer_Tanh_5 (TensorFlowO [(None, 8)]          0           tf_op_layer_Softplus_5[0][0]     
__________________________________________________________________________________________________
tf_op_layer_Mul_5 (TensorFlowOp [(None, 8)]          0           dense[0][0]                      
                                                                 tf_op_layer_Tanh_5[0][0]         
__________________________________________________________________________________________________
dense_1 (Dense)                 (None, 32)           288         tf_op_layer_Mul_5[0][0]          
__________________________________________________________________________________________________
activation (Activation)         (None, 32)           0           dense_1[0][0]                    
__________________________________________________________________________________________________
reshape (Reshape)               (None, 1, 1, 32)     0           activation[0][0]                 
__________________________________________________________________________________________________
multiply (Multiply)             (None, 128, 128, 32) 0           batch_normalization_6[0][0]      
                                                                 reshape[0][0]                    
__________________________________________________________________________________________________
add_1 (Add)                     (None, 128, 128, 32) 0           add[0][0]                        
                                                                 multiply[0][0]                   
__________________________________________________________________________________________________
tf_op_layer_Softplus_6 (TensorF [(None, 128, 128, 32 0           add_1[0][0]                      
__________________________________________________________________________________________________
tf_op_layer_Tanh_6 (TensorFlowO [(None, 128, 128, 32 0           tf_op_layer_Softplus_6[0][0]     
__________________________________________________________________________________________________
tf_op_layer_Mul_6 (TensorFlowOp [(None, 128, 128, 32 0           add_1[0][0]                      
                                                                 tf_op_layer_Tanh_6[0][0]         
__________________________________________________________________________________________________
conv2d_8 (Conv2D)               (None, 128, 128, 32) 9216        tf_op_layer_Mul_6[0][0]          
__________________________________________________________________________________________________
batch_normalization_7 (BatchNor (None, 128, 128, 32) 128         conv2d_8[0][0]                   
__________________________________________________________________________________________________
tf_op_layer_Softplus_7 (TensorF [(None, 128, 128, 32 0           batch_normalization_7[0][0]      
__________________________________________________________________________________________________
tf_op_layer_Tanh_7 (TensorFlowO [(None, 128, 128, 32 0           tf_op_layer_Softplus_7[0][0]     
__________________________________________________________________________________________________
tf_op_layer_Mul_7 (TensorFlowOp [(None, 128, 128, 32 0           batch_normalization_7[0][0]      
                                                                 tf_op_layer_Tanh_7[0][0]         
__________________________________________________________________________________________________
dropout_2 (Dropout)             (None, 128, 128, 32) 0           tf_op_layer_Mul_7[0][0]          
__________________________________________________________________________________________________
conv2d_9 (Conv2D)               (None, 128, 128, 32) 9216        dropout_2[0][0]                  
__________________________________________________________________________________________________
batch_normalization_8 (BatchNor (None, 128, 128, 32) 128         conv2d_9[0][0]                   
__________________________________________________________________________________________________
global_average_pooling2d_1 (Glo (None, 32)           0           batch_normalization_8[0][0]      
__________________________________________________________________________________________________
dense_2 (Dense)                 (None, 8)            264         global_average_pooling2d_1[0][0] 
__________________________________________________________________________________________________
tf_op_layer_Softplus_8 (TensorF [(None, 8)]          0           dense_2[0][0]                    
__________________________________________________________________________________________________
tf_op_layer_Tanh_8 (TensorFlowO [(None, 8)]          0           tf_op_layer_Softplus_8[0][0]     
__________________________________________________________________________________________________
tf_op_layer_Mul_8 (TensorFlowOp [(None, 8)]          0           dense_2[0][0]                    
                                                                 tf_op_layer_Tanh_8[0][0]         
__________________________________________________________________________________________________
dense_3 (Dense)                 (None, 32)           288         tf_op_layer_Mul_8[0][0]          
__________________________________________________________________________________________________
activation_1 (Activation)       (None, 32)           0           dense_3[0][0]                    
__________________________________________________________________________________________________
reshape_1 (Reshape)             (None, 1, 1, 32)     0           activation_1[0][0]               
__________________________________________________________________________________________________
multiply_1 (Multiply)           (None, 128, 128, 32) 0           batch_normalization_8[0][0]      
                                                                 reshape_1[0][0]                  
__________________________________________________________________________________________________
add_2 (Add)                     (None, 128, 128, 32) 0           add_1[0][0]                      
                                                                 multiply_1[0][0]                 
__________________________________________________________________________________________________
conv2d_12 (Conv2D)              (None, 128, 128, 64) 18432       add_2[0][0]                      
__________________________________________________________________________________________________
batch_normalization_10 (BatchNo (None, 128, 128, 64) 256         conv2d_12[0][0]                  
__________________________________________________________________________________________________
tf_op_layer_Softplus_9 (TensorF [(None, 128, 128, 64 0           batch_normalization_10[0][0]     
__________________________________________________________________________________________________
tf_op_layer_Tanh_9 (TensorFlowO [(None, 128, 128, 64 0           tf_op_layer_Softplus_9[0][0]     
__________________________________________________________________________________________________
tf_op_layer_Mul_9 (TensorFlowOp [(None, 128, 128, 64 0           batch_normalization_10[0][0]     
                                                                 tf_op_layer_Tanh_9[0][0]         
__________________________________________________________________________________________________
dropout_3 (Dropout)             (None, 128, 128, 64) 0           tf_op_layer_Mul_9[0][0]          
__________________________________________________________________________________________________
conv2d_13 (Conv2D)              (None, 128, 128, 64) 36864       dropout_3[0][0]                  
__________________________________________________________________________________________________
batch_normalization_11 (BatchNo (None, 128, 128, 64) 256         conv2d_13[0][0]                  
__________________________________________________________________________________________________
max_pooling2d_1 (MaxPooling2D)  (None, 64, 64, 64)   0           batch_normalization_11[0][0]     
__________________________________________________________________________________________________
conv2d_10 (Conv2D)              (None, 64, 64, 64)   2048        add_2[0][0]                      
__________________________________________________________________________________________________
add_3 (Add)                     (None, 64, 64, 64)   0           max_pooling2d_1[0][0]            
                                                                 conv2d_10[0][0]                  
__________________________________________________________________________________________________
tf_op_layer_Softplus_10 (Tensor [(None, 64, 64, 64)] 0           add_3[0][0]                      
__________________________________________________________________________________________________
tf_op_layer_Tanh_10 (TensorFlow [(None, 64, 64, 64)] 0           tf_op_layer_Softplus_10[0][0]    
__________________________________________________________________________________________________
tf_op_layer_Mul_10 (TensorFlowO [(None, 64, 64, 64)] 0           add_3[0][0]                      
                                                                 tf_op_layer_Tanh_10[0][0]        
__________________________________________________________________________________________________
conv2d_14 (Conv2D)              (None, 64, 64, 64)   36864       tf_op_layer_Mul_10[0][0]         
__________________________________________________________________________________________________
batch_normalization_12 (BatchNo (None, 64, 64, 64)   256         conv2d_14[0][0]                  
__________________________________________________________________________________________________
tf_op_layer_Softplus_11 (Tensor [(None, 64, 64, 64)] 0           batch_normalization_12[0][0]     
__________________________________________________________________________________________________
tf_op_layer_Tanh_11 (TensorFlow [(None, 64, 64, 64)] 0           tf_op_layer_Softplus_11[0][0]    
__________________________________________________________________________________________________
tf_op_layer_Mul_11 (TensorFlowO [(None, 64, 64, 64)] 0           batch_normalization_12[0][0]     
                                                                 tf_op_layer_Tanh_11[0][0]        
__________________________________________________________________________________________________
dropout_4 (Dropout)             (None, 64, 64, 64)   0           tf_op_layer_Mul_11[0][0]         
__________________________________________________________________________________________________
conv2d_15 (Conv2D)              (None, 64, 64, 64)   36864       dropout_4[0][0]                  
__________________________________________________________________________________________________
batch_normalization_13 (BatchNo (None, 64, 64, 64)   256         conv2d_15[0][0]                  
__________________________________________________________________________________________________
global_average_pooling2d_2 (Glo (None, 64)           0           batch_normalization_13[0][0]     
__________________________________________________________________________________________________
dense_4 (Dense)                 (None, 16)           1040        global_average_pooling2d_2[0][0] 
__________________________________________________________________________________________________
tf_op_layer_Softplus_12 (Tensor [(None, 16)]         0           dense_4[0][0]                    
__________________________________________________________________________________________________
tf_op_layer_Tanh_12 (TensorFlow [(None, 16)]         0           tf_op_layer_Softplus_12[0][0]    
__________________________________________________________________________________________________
tf_op_layer_Mul_12 (TensorFlowO [(None, 16)]         0           dense_4[0][0]                    
                                                                 tf_op_layer_Tanh_12[0][0]        
__________________________________________________________________________________________________
dense_5 (Dense)                 (None, 64)           1088        tf_op_layer_Mul_12[0][0]         
__________________________________________________________________________________________________
activation_2 (Activation)       (None, 64)           0           dense_5[0][0]                    
__________________________________________________________________________________________________
reshape_2 (Reshape)             (None, 1, 1, 64)     0           activation_2[0][0]               
__________________________________________________________________________________________________
multiply_2 (Multiply)           (None, 64, 64, 64)   0           batch_normalization_13[0][0]     
                                                                 reshape_2[0][0]                  
__________________________________________________________________________________________________
add_4 (Add)                     (None, 64, 64, 64)   0           add_3[0][0]                      
                                                                 multiply_2[0][0]                 
__________________________________________________________________________________________________
tf_op_layer_Softplus_13 (Tensor [(None, 64, 64, 64)] 0           add_4[0][0]                      
__________________________________________________________________________________________________
tf_op_layer_Tanh_13 (TensorFlow [(None, 64, 64, 64)] 0           tf_op_layer_Softplus_13[0][0]    
__________________________________________________________________________________________________
tf_op_layer_Mul_13 (TensorFlowO [(None, 64, 64, 64)] 0           add_4[0][0]                      
                                                                 tf_op_layer_Tanh_13[0][0]        
__________________________________________________________________________________________________
conv2d_16 (Conv2D)              (None, 64, 64, 64)   36864       tf_op_layer_Mul_13[0][0]         
__________________________________________________________________________________________________
batch_normalization_14 (BatchNo (None, 64, 64, 64)   256         conv2d_16[0][0]                  
__________________________________________________________________________________________________
tf_op_layer_Softplus_14 (Tensor [(None, 64, 64, 64)] 0           batch_normalization_14[0][0]     
__________________________________________________________________________________________________
tf_op_layer_Tanh_14 (TensorFlow [(None, 64, 64, 64)] 0           tf_op_layer_Softplus_14[0][0]    
__________________________________________________________________________________________________
tf_op_layer_Mul_14 (TensorFlowO [(None, 64, 64, 64)] 0           batch_normalization_14[0][0]     
                                                                 tf_op_layer_Tanh_14[0][0]        
__________________________________________________________________________________________________
dropout_5 (Dropout)             (None, 64, 64, 64)   0           tf_op_layer_Mul_14[0][0]         
__________________________________________________________________________________________________
conv2d_17 (Conv2D)              (None, 64, 64, 64)   36864       dropout_5[0][0]                  
__________________________________________________________________________________________________
batch_normalization_15 (BatchNo (None, 64, 64, 64)   256         conv2d_17[0][0]                  
__________________________________________________________________________________________________
global_average_pooling2d_3 (Glo (None, 64)           0           batch_normalization_15[0][0]     
__________________________________________________________________________________________________
dense_6 (Dense)                 (None, 16)           1040        global_average_pooling2d_3[0][0] 
__________________________________________________________________________________________________
tf_op_layer_Softplus_15 (Tensor [(None, 16)]         0           dense_6[0][0]                    
__________________________________________________________________________________________________
tf_op_layer_Tanh_15 (TensorFlow [(None, 16)]         0           tf_op_layer_Softplus_15[0][0]    
__________________________________________________________________________________________________
tf_op_layer_Mul_15 (TensorFlowO [(None, 16)]         0           dense_6[0][0]                    
                                                                 tf_op_layer_Tanh_15[0][0]        
__________________________________________________________________________________________________
dense_7 (Dense)                 (None, 64)           1088        tf_op_layer_Mul_15[0][0]         
__________________________________________________________________________________________________
activation_3 (Activation)       (None, 64)           0           dense_7[0][0]                    
__________________________________________________________________________________________________
reshape_3 (Reshape)             (None, 1, 1, 64)     0           activation_3[0][0]               
__________________________________________________________________________________________________
multiply_3 (Multiply)           (None, 64, 64, 64)   0           batch_normalization_15[0][0]     
                                                                 reshape_3[0][0]                  
__________________________________________________________________________________________________
add_5 (Add)                     (None, 64, 64, 64)   0           add_4[0][0]                      
                                                                 multiply_3[0][0]                 
__________________________________________________________________________________________________
conv2d_20 (Conv2D)              (None, 64, 64, 128)  73728       add_5[0][0]                      
__________________________________________________________________________________________________
batch_normalization_17 (BatchNo (None, 64, 64, 128)  512         conv2d_20[0][0]                  
__________________________________________________________________________________________________
tf_op_layer_Softplus_16 (Tensor [(None, 64, 64, 128) 0           batch_normalization_17[0][0]     
__________________________________________________________________________________________________
tf_op_layer_Tanh_16 (TensorFlow [(None, 64, 64, 128) 0           tf_op_layer_Softplus_16[0][0]    
__________________________________________________________________________________________________
tf_op_layer_Mul_16 (TensorFlowO [(None, 64, 64, 128) 0           batch_normalization_17[0][0]     
                                                                 tf_op_layer_Tanh_16[0][0]        
__________________________________________________________________________________________________
dropout_6 (Dropout)             (None, 64, 64, 128)  0           tf_op_layer_Mul_16[0][0]         
__________________________________________________________________________________________________
conv2d_21 (Conv2D)              (None, 64, 64, 128)  147456      dropout_6[0][0]                  
__________________________________________________________________________________________________
batch_normalization_18 (BatchNo (None, 64, 64, 128)  512         conv2d_21[0][0]                  
__________________________________________________________________________________________________
max_pooling2d_2 (MaxPooling2D)  (None, 32, 32, 128)  0           batch_normalization_18[0][0]     
__________________________________________________________________________________________________
conv2d_18 (Conv2D)              (None, 32, 32, 128)  8192        add_5[0][0]                      
__________________________________________________________________________________________________
add_6 (Add)                     (None, 32, 32, 128)  0           max_pooling2d_2[0][0]            
                                                                 conv2d_18[0][0]                  
__________________________________________________________________________________________________
tf_op_layer_Softplus_17 (Tensor [(None, 32, 32, 128) 0           add_6[0][0]                      
__________________________________________________________________________________________________
tf_op_layer_Tanh_17 (TensorFlow [(None, 32, 32, 128) 0           tf_op_layer_Softplus_17[0][0]    
__________________________________________________________________________________________________
tf_op_layer_Mul_17 (TensorFlowO [(None, 32, 32, 128) 0           add_6[0][0]                      
                                                                 tf_op_layer_Tanh_17[0][0]        
__________________________________________________________________________________________________
conv2d_22 (Conv2D)              (None, 32, 32, 128)  147456      tf_op_layer_Mul_17[0][0]         
__________________________________________________________________________________________________
batch_normalization_19 (BatchNo (None, 32, 32, 128)  512         conv2d_22[0][0]                  
__________________________________________________________________________________________________
tf_op_layer_Softplus_18 (Tensor [(None, 32, 32, 128) 0           batch_normalization_19[0][0]     
__________________________________________________________________________________________________
tf_op_layer_Tanh_18 (TensorFlow [(None, 32, 32, 128) 0           tf_op_layer_Softplus_18[0][0]    
__________________________________________________________________________________________________
tf_op_layer_Mul_18 (TensorFlowO [(None, 32, 32, 128) 0           batch_normalization_19[0][0]     
                                                                 tf_op_layer_Tanh_18[0][0]        
__________________________________________________________________________________________________
dropout_7 (Dropout)             (None, 32, 32, 128)  0           tf_op_layer_Mul_18[0][0]         
__________________________________________________________________________________________________
conv2d_23 (Conv2D)              (None, 32, 32, 128)  147456      dropout_7[0][0]                  
__________________________________________________________________________________________________
batch_normalization_20 (BatchNo (None, 32, 32, 128)  512         conv2d_23[0][0]                  
__________________________________________________________________________________________________
global_average_pooling2d_4 (Glo (None, 128)          0           batch_normalization_20[0][0]     
__________________________________________________________________________________________________
dense_8 (Dense)                 (None, 32)           4128        global_average_pooling2d_4[0][0] 
__________________________________________________________________________________________________
tf_op_layer_Softplus_19 (Tensor [(None, 32)]         0           dense_8[0][0]                    
__________________________________________________________________________________________________
tf_op_layer_Tanh_19 (TensorFlow [(None, 32)]         0           tf_op_layer_Softplus_19[0][0]    
__________________________________________________________________________________________________
tf_op_layer_Mul_19 (TensorFlowO [(None, 32)]         0           dense_8[0][0]                    
                                                                 tf_op_layer_Tanh_19[0][0]        
__________________________________________________________________________________________________
dense_9 (Dense)                 (None, 128)          4224        tf_op_layer_Mul_19[0][0]         
__________________________________________________________________________________________________
activation_4 (Activation)       (None, 128)          0           dense_9[0][0]                    
__________________________________________________________________________________________________
reshape_4 (Reshape)             (None, 1, 1, 128)    0           activation_4[0][0]               
__________________________________________________________________________________________________
multiply_4 (Multiply)           (None, 32, 32, 128)  0           batch_normalization_20[0][0]     
                                                                 reshape_4[0][0]                  
__________________________________________________________________________________________________
add_7 (Add)                     (None, 32, 32, 128)  0           add_6[0][0]                      
                                                                 multiply_4[0][0]                 
__________________________________________________________________________________________________
tf_op_layer_Softplus_20 (Tensor [(None, 32, 32, 128) 0           add_7[0][0]                      
__________________________________________________________________________________________________
tf_op_layer_Tanh_20 (TensorFlow [(None, 32, 32, 128) 0           tf_op_layer_Softplus_20[0][0]    
__________________________________________________________________________________________________
tf_op_layer_Mul_20 (TensorFlowO [(None, 32, 32, 128) 0           add_7[0][0]                      
                                                                 tf_op_layer_Tanh_20[0][0]        
__________________________________________________________________________________________________
conv2d_24 (Conv2D)              (None, 32, 32, 128)  147456      tf_op_layer_Mul_20[0][0]         
__________________________________________________________________________________________________
batch_normalization_21 (BatchNo (None, 32, 32, 128)  512         conv2d_24[0][0]                  
__________________________________________________________________________________________________
tf_op_layer_Softplus_21 (Tensor [(None, 32, 32, 128) 0           batch_normalization_21[0][0]     
__________________________________________________________________________________________________
tf_op_layer_Tanh_21 (TensorFlow [(None, 32, 32, 128) 0           tf_op_layer_Softplus_21[0][0]    
__________________________________________________________________________________________________
tf_op_layer_Mul_21 (TensorFlowO [(None, 32, 32, 128) 0           batch_normalization_21[0][0]     
                                                                 tf_op_layer_Tanh_21[0][0]        
__________________________________________________________________________________________________
dropout_8 (Dropout)             (None, 32, 32, 128)  0           tf_op_layer_Mul_21[0][0]         
__________________________________________________________________________________________________
conv2d_25 (Conv2D)              (None, 32, 32, 128)  147456      dropout_8[0][0]                  
__________________________________________________________________________________________________
batch_normalization_22 (BatchNo (None, 32, 32, 128)  512         conv2d_25[0][0]                  
__________________________________________________________________________________________________
global_average_pooling2d_5 (Glo (None, 128)          0           batch_normalization_22[0][0]     
__________________________________________________________________________________________________
dense_10 (Dense)                (None, 32)           4128        global_average_pooling2d_5[0][0] 
__________________________________________________________________________________________________
tf_op_layer_Softplus_22 (Tensor [(None, 32)]         0           dense_10[0][0]                   
__________________________________________________________________________________________________
tf_op_layer_Tanh_22 (TensorFlow [(None, 32)]         0           tf_op_layer_Softplus_22[0][0]    
__________________________________________________________________________________________________
tf_op_layer_Mul_22 (TensorFlowO [(None, 32)]         0           dense_10[0][0]                   
                                                                 tf_op_layer_Tanh_22[0][0]        
__________________________________________________________________________________________________
dense_11 (Dense)                (None, 128)          4224        tf_op_layer_Mul_22[0][0]         
__________________________________________________________________________________________________
activation_5 (Activation)       (None, 128)          0           dense_11[0][0]                   
__________________________________________________________________________________________________
reshape_5 (Reshape)             (None, 1, 1, 128)    0           activation_5[0][0]               
__________________________________________________________________________________________________
multiply_5 (Multiply)           (None, 32, 32, 128)  0           batch_normalization_22[0][0]     
                                                                 reshape_5[0][0]                  
__________________________________________________________________________________________________
add_8 (Add)                     (None, 32, 32, 128)  0           add_7[0][0]                      
                                                                 multiply_5[0][0]                 
__________________________________________________________________________________________________
conv2d_28 (Conv2D)              (None, 32, 32, 256)  294912      add_8[0][0]                      
__________________________________________________________________________________________________
batch_normalization_24 (BatchNo (None, 32, 32, 256)  1024        conv2d_28[0][0]                  
__________________________________________________________________________________________________
tf_op_layer_Softplus_23 (Tensor [(None, 32, 32, 256) 0           batch_normalization_24[0][0]     
__________________________________________________________________________________________________
tf_op_layer_Tanh_23 (TensorFlow [(None, 32, 32, 256) 0           tf_op_layer_Softplus_23[0][0]    
__________________________________________________________________________________________________
tf_op_layer_Mul_23 (TensorFlowO [(None, 32, 32, 256) 0           batch_normalization_24[0][0]     
                                                                 tf_op_layer_Tanh_23[0][0]        
__________________________________________________________________________________________________
dropout_9 (Dropout)             (None, 32, 32, 256)  0           tf_op_layer_Mul_23[0][0]         
__________________________________________________________________________________________________
conv2d_29 (Conv2D)              (None, 32, 32, 256)  589824      dropout_9[0][0]                  
__________________________________________________________________________________________________
batch_normalization_25 (BatchNo (None, 32, 32, 256)  1024        conv2d_29[0][0]                  
__________________________________________________________________________________________________
max_pooling2d_3 (MaxPooling2D)  (None, 16, 16, 256)  0           batch_normalization_25[0][0]     
__________________________________________________________________________________________________
conv2d_26 (Conv2D)              (None, 16, 16, 256)  32768       add_8[0][0]                      
__________________________________________________________________________________________________
add_9 (Add)                     (None, 16, 16, 256)  0           max_pooling2d_3[0][0]            
                                                                 conv2d_26[0][0]                  
__________________________________________________________________________________________________
tf_op_layer_Softplus_24 (Tensor [(None, 16, 16, 256) 0           add_9[0][0]                      
__________________________________________________________________________________________________
tf_op_layer_Tanh_24 (TensorFlow [(None, 16, 16, 256) 0           tf_op_layer_Softplus_24[0][0]    
__________________________________________________________________________________________________
tf_op_layer_Mul_24 (TensorFlowO [(None, 16, 16, 256) 0           add_9[0][0]                      
                                                                 tf_op_layer_Tanh_24[0][0]        
__________________________________________________________________________________________________
conv2d_30 (Conv2D)              (None, 16, 16, 256)  589824      tf_op_layer_Mul_24[0][0]         
__________________________________________________________________________________________________
batch_normalization_26 (BatchNo (None, 16, 16, 256)  1024        conv2d_30[0][0]                  
__________________________________________________________________________________________________
tf_op_layer_Softplus_25 (Tensor [(None, 16, 16, 256) 0           batch_normalization_26[0][0]     
__________________________________________________________________________________________________
tf_op_layer_Tanh_25 (TensorFlow [(None, 16, 16, 256) 0           tf_op_layer_Softplus_25[0][0]    
__________________________________________________________________________________________________
tf_op_layer_Mul_25 (TensorFlowO [(None, 16, 16, 256) 0           batch_normalization_26[0][0]     
                                                                 tf_op_layer_Tanh_25[0][0]        
__________________________________________________________________________________________________
dropout_10 (Dropout)            (None, 16, 16, 256)  0           tf_op_layer_Mul_25[0][0]         
__________________________________________________________________________________________________
conv2d_31 (Conv2D)              (None, 16, 16, 256)  589824      dropout_10[0][0]                 
__________________________________________________________________________________________________
batch_normalization_27 (BatchNo (None, 16, 16, 256)  1024        conv2d_31[0][0]                  
__________________________________________________________________________________________________
global_average_pooling2d_6 (Glo (None, 256)          0           batch_normalization_27[0][0]     
__________________________________________________________________________________________________
dense_12 (Dense)                (None, 64)           16448       global_average_pooling2d_6[0][0] 
__________________________________________________________________________________________________
tf_op_layer_Softplus_26 (Tensor [(None, 64)]         0           dense_12[0][0]                   
__________________________________________________________________________________________________
tf_op_layer_Tanh_26 (TensorFlow [(None, 64)]         0           tf_op_layer_Softplus_26[0][0]    
__________________________________________________________________________________________________
tf_op_layer_Mul_26 (TensorFlowO [(None, 64)]         0           dense_12[0][0]                   
                                                                 tf_op_layer_Tanh_26[0][0]        
__________________________________________________________________________________________________
dense_13 (Dense)                (None, 256)          16640       tf_op_layer_Mul_26[0][0]         
__________________________________________________________________________________________________
activation_6 (Activation)       (None, 256)          0           dense_13[0][0]                   
__________________________________________________________________________________________________
reshape_6 (Reshape)             (None, 1, 1, 256)    0           activation_6[0][0]               
__________________________________________________________________________________________________
multiply_6 (Multiply)           (None, 16, 16, 256)  0           batch_normalization_27[0][0]     
                                                                 reshape_6[0][0]                  
__________________________________________________________________________________________________
add_10 (Add)                    (None, 16, 16, 256)  0           add_9[0][0]                      
                                                                 multiply_6[0][0]                 
__________________________________________________________________________________________________
tf_op_layer_Softplus_27 (Tensor [(None, 16, 16, 256) 0           add_10[0][0]                     
__________________________________________________________________________________________________
tf_op_layer_Tanh_27 (TensorFlow [(None, 16, 16, 256) 0           tf_op_layer_Softplus_27[0][0]    
__________________________________________________________________________________________________
tf_op_layer_Mul_27 (TensorFlowO [(None, 16, 16, 256) 0           add_10[0][0]                     
                                                                 tf_op_layer_Tanh_27[0][0]        
__________________________________________________________________________________________________
conv2d_32 (Conv2D)              (None, 16, 16, 256)  589824      tf_op_layer_Mul_27[0][0]         
__________________________________________________________________________________________________
batch_normalization_28 (BatchNo (None, 16, 16, 256)  1024        conv2d_32[0][0]                  
__________________________________________________________________________________________________
tf_op_layer_Softplus_28 (Tensor [(None, 16, 16, 256) 0           batch_normalization_28[0][0]     
__________________________________________________________________________________________________
tf_op_layer_Tanh_28 (TensorFlow [(None, 16, 16, 256) 0           tf_op_layer_Softplus_28[0][0]    
__________________________________________________________________________________________________
tf_op_layer_Mul_28 (TensorFlowO [(None, 16, 16, 256) 0           batch_normalization_28[0][0]     
                                                                 tf_op_layer_Tanh_28[0][0]        
__________________________________________________________________________________________________
dropout_11 (Dropout)            (None, 16, 16, 256)  0           tf_op_layer_Mul_28[0][0]         
__________________________________________________________________________________________________
conv2d_33 (Conv2D)              (None, 16, 16, 256)  589824      dropout_11[0][0]                 
__________________________________________________________________________________________________
batch_normalization_29 (BatchNo (None, 16, 16, 256)  1024        conv2d_33[0][0]                  
__________________________________________________________________________________________________
global_average_pooling2d_7 (Glo (None, 256)          0           batch_normalization_29[0][0]     
__________________________________________________________________________________________________
dense_14 (Dense)                (None, 64)           16448       global_average_pooling2d_7[0][0] 
__________________________________________________________________________________________________
tf_op_layer_Softplus_29 (Tensor [(None, 64)]         0           dense_14[0][0]                   
__________________________________________________________________________________________________
tf_op_layer_Tanh_29 (TensorFlow [(None, 64)]         0           tf_op_layer_Softplus_29[0][0]    
__________________________________________________________________________________________________
tf_op_layer_Mul_29 (TensorFlowO [(None, 64)]         0           dense_14[0][0]                   
                                                                 tf_op_layer_Tanh_29[0][0]        
__________________________________________________________________________________________________
dense_15 (Dense)                (None, 256)          16640       tf_op_layer_Mul_29[0][0]         
__________________________________________________________________________________________________
activation_7 (Activation)       (None, 256)          0           dense_15[0][0]                   
__________________________________________________________________________________________________
reshape_7 (Reshape)             (None, 1, 1, 256)    0           activation_7[0][0]               
__________________________________________________________________________________________________
multiply_7 (Multiply)           (None, 16, 16, 256)  0           batch_normalization_29[0][0]     
                                                                 reshape_7[0][0]                  
__________________________________________________________________________________________________
add_11 (Add)                    (None, 16, 16, 256)  0           add_10[0][0]                     
                                                                 multiply_7[0][0]                 
__________________________________________________________________________________________________
lambda_layer (LambdaLayer)      (None, 16, 16, 256)  100224      add_11[0][0]                     
__________________________________________________________________________________________________
global_average_pooling2d_8 (Glo (None, 256)          0           lambda_layer[0][0]               
__________________________________________________________________________________________________
global_average_pooling2d_9 (Glo (None, 256)          0           lambda_layer[0][0]               
__________________________________________________________________________________________________
batch_normalization_32 (BatchNo (None, 256)          1024        global_average_pooling2d_8[0][0] 
__________________________________________________________________________________________________
color_label (InputLayer)        [(None, 11)]         0                                            
__________________________________________________________________________________________________
batch_normalization_33 (BatchNo (None, 256)          1024        global_average_pooling2d_9[0][0] 
__________________________________________________________________________________________________
shape_label (InputLayer)        [(None, 2)]          0                                            
__________________________________________________________________________________________________
arc_face (ArcFace)              (None, 11)           2816        batch_normalization_32[0][0]     
                                                                 color_label[0][0]                
__________________________________________________________________________________________________
arc_face_1 (ArcFace)            (None, 2)            512         batch_normalization_33[0][0]     
                                                                 shape_label[0][0]                
__________________________________________________________________________________________________
color_logits (Activation)       (None, 11)           0           arc_face[0][0]                   
__________________________________________________________________________________________________
shape_logits (Activation)       (None, 2)            0           arc_face_1[0][0]                 
==================================================================================================
Total params: 4,560,224
Trainable params: 4,552,736
Non-trainable params: 7,488
__________________________________________________________________________________________________
Model: "functional_3"
__________________________________________________________________________________________________
Layer (type)                    Output Shape         Param #     Connected to                     
==================================================================================================
input_1 (InputLayer)            [(None, 256, 256, 3) 0                                            
__________________________________________________________________________________________________
conv2d (Conv2D)                 (None, 256, 256, 16) 432         input_1[0][0]                    
__________________________________________________________________________________________________
batch_normalization (BatchNorma (None, 256, 256, 16) 64          conv2d[0][0]                     
__________________________________________________________________________________________________
tf_op_layer_Softplus (TensorFlo [(None, 256, 256, 16 0           batch_normalization[0][0]        
__________________________________________________________________________________________________
tf_op_layer_Tanh (TensorFlowOpL [(None, 256, 256, 16 0           tf_op_layer_Softplus[0][0]       
__________________________________________________________________________________________________
tf_op_layer_Mul (TensorFlowOpLa [(None, 256, 256, 16 0           batch_normalization[0][0]        
                                                                 tf_op_layer_Tanh[0][0]           
__________________________________________________________________________________________________
conv2d_1 (Conv2D)               (None, 256, 256, 16) 2304        tf_op_layer_Mul[0][0]            
__________________________________________________________________________________________________
batch_normalization_1 (BatchNor (None, 256, 256, 16) 64          conv2d_1[0][0]                   
__________________________________________________________________________________________________
tf_op_layer_Softplus_1 (TensorF [(None, 256, 256, 16 0           batch_normalization_1[0][0]      
__________________________________________________________________________________________________
tf_op_layer_Tanh_1 (TensorFlowO [(None, 256, 256, 16 0           tf_op_layer_Softplus_1[0][0]     
__________________________________________________________________________________________________
tf_op_layer_Mul_1 (TensorFlowOp [(None, 256, 256, 16 0           batch_normalization_1[0][0]      
                                                                 tf_op_layer_Tanh_1[0][0]         
__________________________________________________________________________________________________
conv2d_4 (Conv2D)               (None, 256, 256, 32) 4608        tf_op_layer_Mul_1[0][0]          
__________________________________________________________________________________________________
batch_normalization_3 (BatchNor (None, 256, 256, 32) 128         conv2d_4[0][0]                   
__________________________________________________________________________________________________
tf_op_layer_Softplus_2 (TensorF [(None, 256, 256, 32 0           batch_normalization_3[0][0]      
__________________________________________________________________________________________________
tf_op_layer_Tanh_2 (TensorFlowO [(None, 256, 256, 32 0           tf_op_layer_Softplus_2[0][0]     
__________________________________________________________________________________________________
tf_op_layer_Mul_2 (TensorFlowOp [(None, 256, 256, 32 0           batch_normalization_3[0][0]      
                                                                 tf_op_layer_Tanh_2[0][0]         
__________________________________________________________________________________________________
dropout (Dropout)               (None, 256, 256, 32) 0           tf_op_layer_Mul_2[0][0]          
__________________________________________________________________________________________________
conv2d_5 (Conv2D)               (None, 256, 256, 32) 9216        dropout[0][0]                    
__________________________________________________________________________________________________
batch_normalization_4 (BatchNor (None, 256, 256, 32) 128         conv2d_5[0][0]                   
__________________________________________________________________________________________________
max_pooling2d (MaxPooling2D)    (None, 128, 128, 32) 0           batch_normalization_4[0][0]      
__________________________________________________________________________________________________
conv2d_2 (Conv2D)               (None, 128, 128, 32) 512         tf_op_layer_Mul_1[0][0]          
__________________________________________________________________________________________________
add (Add)                       (None, 128, 128, 32) 0           max_pooling2d[0][0]              
                                                                 conv2d_2[0][0]                   
__________________________________________________________________________________________________
tf_op_layer_Softplus_3 (TensorF [(None, 128, 128, 32 0           add[0][0]                        
__________________________________________________________________________________________________
…
__________________________________________________________________________________________________
tf_op_layer_Tanh_13 (TensorFlow [(None, 64, 64, 64)] 0           tf_op_layer_Softplus_13[0][0]    
__________________________________________________________________________________________________
tf_op_layer_Mul_13 (TensorFlowO [(None, 64, 64, 64)] 0           add_4[0][0]                      
                                                                 tf_op_layer_Tanh_13[0][0]        
__________________________________________________________________________________________________
conv2d_16 (Conv2D)              (None, 64, 64, 64)   36864       tf_op_layer_Mul_13[0][0]         
__________________________________________________________________________________________________
batch_normalization_14 (BatchNo (None, 64, 64, 64)   256         conv2d_16[0][0]                  
__________________________________________________________________________________________________
tf_op_layer_Softplus_14 (Tensor [(None, 64, 64, 64)] 0           batch_normalization_14[0][0]     
__________________________________________________________________________________________________
tf_op_layer_Tanh_14 (TensorFlow [(None, 64, 64, 64)] 0           tf_op_layer_Softplus_14[0][0]    
__________________________________________________________________________________________________
tf_op_layer_Mul_14 (TensorFlowO [(None, 64, 64, 64)] 0           batch_normalization_14[0][0]     
                                                                 tf_op_layer_Tanh_14[0][0]        
__________________________________________________________________________________________________
dropout_5 (Dropout)             (None, 64, 64, 64)   0           tf_op_layer_Mul_14[0][0]         
__________________________________________________________________________________________________
conv2d_17 (Conv2D)              (None, 64, 64, 64)   36864       dropout_5[0][0]                  
__________________________________________________________________________________________________
batch_normalization_15 (BatchNo (None, 64, 64, 64)   256         conv2d_17[0][0]                  
__________________________________________________________________________________________________
global_average_pooling2d_3 (Glo (None, 64)           0           batch_normalization_15[0][0]     
__________________________________________________________________________________________________
dense_6 (Dense)                 (None, 16)           1040        global_average_pooling2d_3[0][0] 
__________________________________________________________________________________________________
tf_op_layer_Softplus_15 (Tensor [(None, 16)]         0           dense_6[0][0]                    
__________________________________________________________________________________________________
tf_op_layer_Tanh_15 (TensorFlow [(None, 16)]         0           tf_op_layer_Softplus_15[0][0]    
__________________________________________________________________________________________________
tf_op_layer_Mul_15 (TensorFlowO [(None, 16)]         0           dense_6[0][0]                    
                                                                 tf_op_layer_Tanh_15[0][0]        
__________________________________________________________________________________________________
dense_7 (Dense)                 (None, 64)           1088        tf_op_layer_Mul_15[0][0]         
__________________________________________________________________________________________________
activation_3 (Activation)       (None, 64)           0           dense_7[0][0]                    
__________________________________________________________________________________________________
reshape_3 (Reshape)             (None, 1, 1, 64)     0           activation_3[0][0]               
__________________________________________________________________________________________________
multiply_3 (Multiply)           (None, 64, 64, 64)   0           batch_normalization_15[0][0]     
                                                                 reshape_3[0][0]                  
__________________________________________________________________________________________________
add_5 (Add)                     (None, 64, 64, 64)   0           add_4[0][0]                      
                                                                 multiply_3[0][0]                 
__________________________________________________________________________________________________
conv2d_20 (Conv2D)              (None, 64, 64, 128)  73728       add_5[0][0]                      
__________________________________________________________________________________________________
batch_normalization_17 (BatchNo (None, 64, 64, 128)  512         conv2d_20[0][0]                  
__________________________________________________________________________________________________
tf_op_layer_Softplus_16 (Tensor [(None, 64, 64, 128) 0           batch_normalization_17[0][0]     
__________________________________________________________________________________________________
tf_op_layer_Tanh_16 (TensorFlow [(None, 64, 64, 128) 0           tf_op_layer_Softplus_16[0][0]    
__________________________________________________________________________________________________
tf_op_layer_Mul_16 (TensorFlowO [(None, 64, 64, 128) 0           batch_normalization_17[0][0]     
                                                                 tf_op_layer_Tanh_16[0][0]        
__________________________________________________________________________________________________
dropout_6 (Dropout)             (None, 64, 64, 128)  0           tf_op_layer_Mul_16[0][0]         
__________________________________________________________________________________________________
conv2d_21 (Conv2D)              (None, 64, 64, 128)  147456      dropout_6[0][0]                  
__________________________________________________________________________________________________
batch_normalization_18 (BatchNo (None, 64, 64, 128)  512         conv2d_21[0][0]                  
__________________________________________________________________________________________________
max_pooling2d_2 (MaxPooling2D)  (None, 32, 32, 128)  0           batch_normalization_18[0][0]     
__________________________________________________________________________________________________
conv2d_18 (Conv2D)              (None, 32, 32, 128)  8192        add_5[0][0]                      
__________________________________________________________________________________________________
add_6 (Add)                     (None, 32, 32, 128)  0           max_pooling2d_2[0][0]            
                                                                 conv2d_18[0][0]                  
__________________________________________________________________________________________________
tf_op_layer_Softplus_17 (Tensor [(None, 32, 32, 128) 0           add_6[0][0]                      
__________________________________________________________________________________________________
tf_op_layer_Tanh_17 (TensorFlow [(None, 32, 32, 128) 0           tf_op_layer_Softplus_17[0][0]    
__________________________________________________________________________________________________
tf_op_layer_Mul_17 (TensorFlowO [(None, 32, 32, 128) 0           add_6[0][0]                      
                                                                 tf_op_layer_Tanh_17[0][0]        
__________________________________________________________________________________________________
conv2d_22 (Conv2D)              (None, 32, 32, 128)  147456      tf_op_layer_Mul_17[0][0]         
__________________________________________________________________________________________________
batch_normalization_19 (BatchNo (None, 32, 32, 128)  512         conv2d_22[0][0]                  
__________________________________________________________________________________________________
tf_op_layer_Softplus_18 (Tensor [(None, 32, 32, 128) 0           batch_normalization_19[0][0]     
__________________________________________________________________________________________________
tf_op_layer_Tanh_18 (TensorFlow [(None, 32, 32, 128) 0           tf_op_layer_Softplus_18[0][0]    
__________________________________________________________________________________________________
tf_op_layer_Mul_18 (TensorFlowO [(None, 32, 32, 128) 0           batch_normalization_19[0][0]     
                                                                 tf_op_layer_Tanh_18[0][0]        
__________________________________________________________________________________________________
dropout_7 (Dropout)             (None, 32, 32, 128)  0           tf_op_layer_Mul_18[0][0]         
__________________________________________________________________________________________________
conv2d_23 (Conv2D)              (None, 32, 32, 128)  147456      dropout_7[0][0]                  
__________________________________________________________________________________________________
batch_normalization_20 (BatchNo (None, 32, 32, 128)  512         conv2d_23[0][0]                  
__________________________________________________________________________________________________
global_average_pooling2d_4 (Glo (None, 128)          0           batch_normalization_20[0][0]     
__________________________________________________________________________________________________
dense_8 (Dense)                 (None, 32)           4128        global_average_pooling2d_4[0][0] 
__________________________________________________________________________________________________
tf_op_layer_Softplus_19 (Tensor [(None, 32)]         0           dense_8[0][0]                    
__________________________________________________________________________________________________
tf_op_layer_Tanh_19 (TensorFlow [(None, 32)]         0           tf_op_layer_Softplus_19[0][0]    
__________________________________________________________________________________________________
tf_op_layer_Mul_19 (TensorFlowO [(None, 32)]         0           dense_8[0][0]                    
                                                                 tf_op_layer_Tanh_19[0][0]        
__________________________________________________________________________________________________
dense_9 (Dense)                 (None, 128)          4224        tf_op_layer_Mul_19[0][0]         
__________________________________________________________________________________________________
activation_4 (Activation)       (None, 128)          0           dense_9[0][0]                    
__________________________________________________________________________________________________
reshape_4 (Reshape)             (None, 1, 1, 128)    0           activation_4[0][0]               
__________________________________________________________________________________________________
multiply_4 (Multiply)           (None, 32, 32, 128)  0           batch_normalization_20[0][0]     
                                                                 reshape_4[0][0]                  
__________________________________________________________________________________________________
add_7 (Add)                     (None, 32, 32, 128)  0           add_6[0][0]                      
                                                                 multiply_4[0][0]                 
__________________________________________________________________________________________________
tf_op_layer_Softplus_20 (Tensor [(None, 32, 32, 128) 0           add_7[0][0]                      
__________________________________________________________________________________________________
tf_op_layer_Tanh_20 (TensorFlow [(None, 32, 32, 128) 0           tf_op_layer_Softplus_20[0][0]    
__________________________________________________________________________________________________
tf_op_layer_Mul_20 (TensorFlowO [(None, 32, 32, 128) 0           add_7[0][0]                      
                                                                 tf_op_layer_Tanh_20[0][0]        
__________________________________________________________________________________________________
conv2d_24 (Conv2D)              (None, 32, 32, 128)  147456      tf_op_layer_Mul_20[0][0]         
__________________________________________________________________________________________________
batch_normalization_21 (BatchNo (None, 32, 32, 128)  512         conv2d_24[0][0]                  
__________________________________________________________________________________________________
tf_op_layer_Softplus_21 (Tensor [(None, 32, 32, 128) 0           batch_normalization_21[0][0]     
__________________________________________________________________________________________________
tf_op_layer_Tanh_21 (TensorFlow [(None, 32, 32, 128) 0           tf_op_layer_Softplus_21[0][0]    
__________________________________________________________________________________________________
tf_op_layer_Mul_21 (TensorFlowO [(None, 32, 32, 128) 0           batch_normalization_21[0][0]     
                                                                 tf_op_layer_Tanh_21[0][0]        
__________________________________________________________________________________________________
dropout_8 (Dropout)             (None, 32, 32, 128)  0           tf_op_layer_Mul_21[0][0]         
__________________________________________________________________________________________________
conv2d_25 (Conv2D)              (None, 32, 32, 128)  147456      dropout_8[0][0]                  
__________________________________________________________________________________________________
batch_normalization_22 (BatchNo (None, 32, 32, 128)  512         conv2d_25[0][0]                  
__________________________________________________________________________________________________
global_average_pooling2d_5 (Glo (None, 128)          0           batch_normalization_22[0][0]     
__________________________________________________________________________________________________
dense_10 (Dense)                (None, 32)           4128        global_average_pooling2d_5[0][0] 
__________________________________________________________________________________________________
tf_op_layer_Softplus_22 (Tensor [(None, 32)]         0           dense_10[0][0]                   
__________________________________________________________________________________________________
tf_op_layer_Tanh_22 (TensorFlow [(None, 32)]         0           tf_op_layer_Softplus_22[0][0]    
__________________________________________________________________________________________________
tf_op_layer_Mul_22 (TensorFlowO [(None, 32)]         0           dense_10[0][0]                   
                                                                 tf_op_layer_Tanh_22[0][0]        
__________________________________________________________________________________________________
dense_11 (Dense)                (None, 128)          4224        tf_op_layer_Mul_22[0][0]         
__________________________________________________________________________________________________
activation_5 (Activation)       (None, 128)          0           dense_11[0][0]                   
__________________________________________________________________________________________________
reshape_5 (Reshape)             (None, 1, 1, 128)    0           activation_5[0][0]               
__________________________________________________________________________________________________
multiply_5 (Multiply)           (None, 32, 32, 128)  0           batch_normalization_22[0][0]     
                                                                 reshape_5[0][0]                  
__________________________________________________________________________________________________
add_8 (Add)                     (None, 32, 32, 128)  0           add_7[0][0]                      
                                                                 multiply_5[0][0]                 
__________________________________________________________________________________________________
conv2d_28 (Conv2D)              (None, 32, 32, 256)  294912      add_8[0][0]                      
__________________________________________________________________________________________________
batch_normalization_24 (BatchNo (None, 32, 32, 256)  1024        conv2d_28[0][0]                  
__________________________________________________________________________________________________
tf_op_layer_Softplus_23 (Tensor [(None, 32, 32, 256) 0           batch_normalization_24[0][0]     
__________________________________________________________________________________________________
tf_op_layer_Tanh_23 (TensorFlow [(None, 32, 32, 256) 0           tf_op_layer_Softplus_23[0][0]    
__________________________________________________________________________________________________
tf_op_layer_Mul_23 (TensorFlowO [(None, 32, 32, 256) 0           batch_normalization_24[0][0]     
                                                                 tf_op_layer_Tanh_23[0][0]        
__________________________________________________________________________________________________
dropout_9 (Dropout)             (None, 32, 32, 256)  0           tf_op_layer_Mul_23[0][0]         
__________________________________________________________________________________________________
conv2d_29 (Conv2D)              (None, 32, 32, 256)  589824      dropout_9[0][0]                  
__________________________________________________________________________________________________
batch_normalization_25 (BatchNo (None, 32, 32, 256)  1024        conv2d_29[0][0]                  
__________________________________________________________________________________________________
max_pooling2d_3 (MaxPooling2D)  (None, 16, 16, 256)  0           batch_normalization_25[0][0]     
__________________________________________________________________________________________________
conv2d_26 (Conv2D)              (None, 16, 16, 256)  32768       add_8[0][0]                      
__________________________________________________________________________________________________
add_9 (Add)                     (None, 16, 16, 256)  0           max_pooling2d_3[0][0]            
                                                                 conv2d_26[0][0]                  
__________________________________________________________________________________________________
tf_op_layer_Softplus_24 (Tensor [(None, 16, 16, 256) 0           add_9[0][0]                      
__________________________________________________________________________________________________
tf_op_layer_Tanh_24 (TensorFlow [(None, 16, 16, 256) 0           tf_op_layer_Softplus_24[0][0]    
__________________________________________________________________________________________________
tf_op_layer_Mul_24 (TensorFlowO [(None, 16, 16, 256) 0           add_9[0][0]                      
                                                                 tf_op_layer_Tanh_24[0][0]        
__________________________________________________________________________________________________
conv2d_30 (Conv2D)              (None, 16, 16, 256)  589824      tf_op_layer_Mul_24[0][0]         
__________________________________________________________________________________________________
batch_normalization_26 (BatchNo (None, 16, 16, 256)  1024        conv2d_30[0][0]                  
__________________________________________________________________________________________________
tf_op_layer_Softplus_25 (Tensor [(None, 16, 16, 256) 0           batch_normalization_26[0][0]     
__________________________________________________________________________________________________
tf_op_layer_Tanh_25 (TensorFlow [(None, 16, 16, 256) 0           tf_op_layer_Softplus_25[0][0]    
__________________________________________________________________________________________________
tf_op_layer_Mul_25 (TensorFlowO [(None, 16, 16, 256) 0           batch_normalization_26[0][0]     
                                                                 tf_op_layer_Tanh_25[0][0]        
__________________________________________________________________________________________________
dropout_10 (Dropout)            (None, 16, 16, 256)  0           tf_op_layer_Mul_25[0][0]         
__________________________________________________________________________________________________
conv2d_31 (Conv2D)              (None, 16, 16, 256)  589824      dropout_10[0][0]                 
__________________________________________________________________________________________________
batch_normalization_27 (BatchNo (None, 16, 16, 256)  1024        conv2d_31[0][0]                  
__________________________________________________________________________________________________
global_average_pooling2d_6 (Glo (None, 256)          0           batch_normalization_27[0][0]     
__________________________________________________________________________________________________
dense_12 (Dense)                (None, 64)           16448       global_average_pooling2d_6[0][0] 
__________________________________________________________________________________________________
tf_op_layer_Softplus_26 (Tensor [(None, 64)]         0           dense_12[0][0]                   
__________________________________________________________________________________________________
tf_op_layer_Tanh_26 (TensorFlow [(None, 64)]         0           tf_op_layer_Softplus_26[0][0]    
__________________________________________________________________________________________________
tf_op_layer_Mul_26 (TensorFlowO [(None, 64)]         0           dense_12[0][0]                   
                                                                 tf_op_layer_Tanh_26[0][0]        
__________________________________________________________________________________________________
dense_13 (Dense)                (None, 256)          16640       tf_op_layer_Mul_26[0][0]         
__________________________________________________________________________________________________
activation_6 (Activation)       (None, 256)          0           dense_13[0][0]                   
__________________________________________________________________________________________________
reshape_6 (Reshape)             (None, 1, 1, 256)    0           activation_6[0][0]               
__________________________________________________________________________________________________
multiply_6 (Multiply)           (None, 16, 16, 256)  0           batch_normalization_27[0][0]     
                                                                 reshape_6[0][0]                  
__________________________________________________________________________________________________
add_10 (Add)                    (None, 16, 16, 256)  0           add_9[0][0]                      
                                                                 multiply_6[0][0]                 
__________________________________________________________________________________________________
tf_op_layer_Softplus_27 (Tensor [(None, 16, 16, 256) 0           add_10[0][0]                     
__________________________________________________________________________________________________
tf_op_layer_Tanh_27 (TensorFlow [(None, 16, 16, 256) 0           tf_op_layer_Softplus_27[0][0]    
__________________________________________________________________________________________________
tf_op_layer_Mul_27 (TensorFlowO [(None, 16, 16, 256) 0           add_10[0][0]                     
                                                                 tf_op_layer_Tanh_27[0][0]        
__________________________________________________________________________________________________
conv2d_32 (Conv2D)              (None, 16, 16, 256)  589824      tf_op_layer_Mul_27[0][0]         
__________________________________________________________________________________________________
batch_normalization_28 (BatchNo (None, 16, 16, 256)  1024        conv2d_32[0][0]                  
__________________________________________________________________________________________________
tf_op_layer_Softplus_28 (Tensor [(None, 16, 16, 256) 0           batch_normalization_28[0][0]     
__________________________________________________________________________________________________
tf_op_layer_Tanh_28 (TensorFlow [(None, 16, 16, 256) 0           tf_op_layer_Softplus_28[0][0]    
__________________________________________________________________________________________________
tf_op_layer_Mul_28 (TensorFlowO [(None, 16, 16, 256) 0           batch_normalization_28[0][0]     
                                                                 tf_op_layer_Tanh_28[0][0]        
__________________________________________________________________________________________________
dropout_11 (Dropout)            (None, 16, 16, 256)  0           tf_op_layer_Mul_28[0][0]         
__________________________________________________________________________________________________
conv2d_33 (Conv2D)              (None, 16, 16, 256)  589824      dropout_11[0][0]                 
__________________________________________________________________________________________________
batch_normalization_29 (BatchNo (None, 16, 16, 256)  1024        conv2d_33[0][0]                  
__________________________________________________________________________________________________
global_average_pooling2d_7 (Glo (None, 256)          0           batch_normalization_29[0][0]     
__________________________________________________________________________________________________
dense_14 (Dense)                (None, 64)           16448       global_average_pooling2d_7[0][0] 
__________________________________________________________________________________________________
tf_op_layer_Softplus_29 (Tensor [(None, 64)]         0           dense_14[0][0]                   
__________________________________________________________________________________________________
tf_op_layer_Tanh_29 (TensorFlow [(None, 64)]         0           tf_op_layer_Softplus_29[0][0]    
__________________________________________________________________________________________________
tf_op_layer_Mul_29 (TensorFlowO [(None, 64)]         0           dense_14[0][0]                   
                                                                 tf_op_layer_Tanh_29[0][0]        
__________________________________________________________________________________________________
dense_15 (Dense)                (None, 256)          16640       tf_op_layer_Mul_29[0][0]         
__________________________________________________________________________________________________
activation_7 (Activation)       (None, 256)          0           dense_15[0][0]                   
__________________________________________________________________________________________________
reshape_7 (Reshape)             (None, 1, 1, 256)    0           activation_7[0][0]               
__________________________________________________________________________________________________
multiply_7 (Multiply)           (None, 16, 16, 256)  0           batch_normalization_29[0][0]     
                                                                 reshape_7[0][0]                  
__________________________________________________________________________________________________
add_11 (Add)                    (None, 16, 16, 256)  0           add_10[0][0]                     
                                                                 multiply_7[0][0]                 
__________________________________________________________________________________________________
lambda_layer (LambdaLayer)      (None, 16, 16, 256)  100224      add_11[0][0]                     
__________________________________________________________________________________________________
global_average_pooling2d_9 (Glo (None, 256)          0           lambda_layer[0][0]               
__________________________________________________________________________________________________
global_average_pooling2d_8 (Glo (None, 256)          0           lambda_layer[0][0]               
==================================================================================================
Total params: 4,554,848
Trainable params: 4,548,384
Non-trainable params: 6,464
__________________________________________________________________________________________________
Model: "functional_3"
__________________________________________________________________________________________________
Layer (type)                    Output Shape         Param #     Connected to                     
==================================================================================================
input_1 (InputLayer)            [(None, 256, 256, 3) 0                                            
__________________________________________________________________________________________________
conv2d (Conv2D)                 (None, 256, 256, 16) 432         input_1[0][0]                    
__________________________________________________________________________________________________
batch_normalization (BatchNorma (None, 256, 256, 16) 64          conv2d[0][0]                     
__________________________________________________________________________________________________
tf_op_layer_Softplus (TensorFlo [(None, 256, 256, 16 0           batch_normalization[0][0]        
__________________________________________________________________________________________________
tf_op_layer_Tanh (TensorFlowOpL [(None, 256, 256, 16 0           tf_op_layer_Softplus[0][0]       
__________________________________________________________________________________________________
tf_op_layer_Mul (TensorFlowOpLa [(None, 256, 256, 16 0           batch_normalization[0][0]        
                                                                 tf_op_layer_Tanh[0][0]           
__________________________________________________________________________________________________
conv2d_1 (Conv2D)               (None, 256, 256, 16) 2304        tf_op_layer_Mul[0][0]            
__________________________________________________________________________________________________
batch_normalization_1 (BatchNor (None, 256, 256, 16) 64          conv2d_1[0][0]                   
__________________________________________________________________________________________________
tf_op_layer_Softplus_1 (TensorF [(None, 256, 256, 16 0           batch_normalization_1[0][0]      
__________________________________________________________________________________________________
tf_op_layer_Tanh_1 (TensorFlowO [(None, 256, 256, 16 0           tf_op_layer_Softplus_1[0][0]     
__________________________________________________________________________________________________
tf_op_layer_Mul_1 (TensorFlowOp [(None, 256, 256, 16 0           batch_normalization_1[0][0]      
                                                                 tf_op_layer_Tanh_1[0][0]         
__________________________________________________________________________________________________
conv2d_4 (Conv2D)               (None, 256, 256, 32) 4608        tf_op_layer_Mul_1[0][0]          
__________________________________________________________________________________________________
batch_normalization_3 (BatchNor (None, 256, 256, 32) 128         conv2d_4[0][0]                   
__________________________________________________________________________________________________
tf_op_layer_Softplus_2 (TensorF [(None, 256, 256, 32 0           batch_normalization_3[0][0]      
__________________________________________________________________________________________________
tf_op_layer_Tanh_2 (TensorFlowO [(None, 256, 256, 32 0           tf_op_layer_Softplus_2[0][0]     
__________________________________________________________________________________________________
tf_op_layer_Mul_2 (TensorFlowOp [(None, 256, 256, 32 0           batch_normalization_3[0][0]      
                                                                 tf_op_layer_Tanh_2[0][0]         
__________________________________________________________________________________________________
dropout (Dropout)               (None, 256, 256, 32) 0           tf_op_layer_Mul_2[0][0]          
__________________________________________________________________________________________________
conv2d_5 (Conv2D)               (None, 256, 256, 32) 9216        dropout[0][0]                    
__________________________________________________________________________________________________
batch_normalization_4 (BatchNor (None, 256, 256, 32) 128         conv2d_5[0][0]                   
__________________________________________________________________________________________________
max_pooling2d (MaxPooling2D)    (None, 128, 128, 32) 0           batch_normalization_4[0][0]      
__________________________________________________________________________________________________
conv2d_2 (Conv2D)               (None, 128, 128, 32) 512         tf_op_layer_Mul_1[0][0]          
__________________________________________________________________________________________________
add (Add)                       (None, 128, 128, 32) 0           max_pooling2d[0][0]              
                                                                 conv2d_2[0][0]                   
__________________________________________________________________________________________________
tf_op_layer_Softplus_3 (TensorF [(None, 128, 128, 32 0           add[0][0]                        
__________________________________________________________________________________________________
…
__________________________________________________________________________________________________
tf_op_layer_Tanh_13 (TensorFlow [(None, 64, 64, 64)] 0           tf_op_layer_Softplus_13[0][0]    
__________________________________________________________________________________________________
tf_op_layer_Mul_13 (TensorFlowO [(None, 64, 64, 64)] 0           add_4[0][0]                      
                                                                 tf_op_layer_Tanh_13[0][0]        
__________________________________________________________________________________________________
conv2d_16 (Conv2D)              (None, 64, 64, 64)   36864       tf_op_layer_Mul_13[0][0]         
__________________________________________________________________________________________________
batch_normalization_14 (BatchNo (None, 64, 64, 64)   256         conv2d_16[0][0]                  
__________________________________________________________________________________________________
tf_op_layer_Softplus_14 (Tensor [(None, 64, 64, 64)] 0           batch_normalization_14[0][0]     
__________________________________________________________________________________________________
tf_op_layer_Tanh_14 (TensorFlow [(None, 64, 64, 64)] 0           tf_op_layer_Softplus_14[0][0]    
__________________________________________________________________________________________________
tf_op_layer_Mul_14 (TensorFlowO [(None, 64, 64, 64)] 0           batch_normalization_14[0][0]     
                                                                 tf_op_layer_Tanh_14[0][0]        
__________________________________________________________________________________________________
dropout_5 (Dropout)             (None, 64, 64, 64)   0           tf_op_layer_Mul_14[0][0]         
__________________________________________________________________________________________________
conv2d_17 (Conv2D)              (None, 64, 64, 64)   36864       dropout_5[0][0]                  
__________________________________________________________________________________________________
batch_normalization_15 (BatchNo (None, 64, 64, 64)   256         conv2d_17[0][0]                  
__________________________________________________________________________________________________
global_average_pooling2d_3 (Glo (None, 64)           0           batch_normalization_15[0][0]     
__________________________________________________________________________________________________
dense_6 (Dense)                 (None, 16)           1040        global_average_pooling2d_3[0][0] 
__________________________________________________________________________________________________
tf_op_layer_Softplus_15 (Tensor [(None, 16)]         0           dense_6[0][0]                    
__________________________________________________________________________________________________
tf_op_layer_Tanh_15 (TensorFlow [(None, 16)]         0           tf_op_layer_Softplus_15[0][0]    
__________________________________________________________________________________________________
tf_op_layer_Mul_15 (TensorFlowO [(None, 16)]         0           dense_6[0][0]                    
                                                                 tf_op_layer_Tanh_15[0][0]        
__________________________________________________________________________________________________
dense_7 (Dense)                 (None, 64)           1088        tf_op_layer_Mul_15[0][0]         
__________________________________________________________________________________________________
activation_3 (Activation)       (None, 64)           0           dense_7[0][0]                    
__________________________________________________________________________________________________
reshape_3 (Reshape)             (None, 1, 1, 64)     0           activation_3[0][0]               
__________________________________________________________________________________________________
multiply_3 (Multiply)           (None, 64, 64, 64)   0           batch_normalization_15[0][0]     
                                                                 reshape_3[0][0]                  
__________________________________________________________________________________________________
add_5 (Add)                     (None, 64, 64, 64)   0           add_4[0][0]                      
                                                                 multiply_3[0][0]                 
__________________________________________________________________________________________________
conv2d_20 (Conv2D)              (None, 64, 64, 128)  73728       add_5[0][0]                      
__________________________________________________________________________________________________
batch_normalization_17 (BatchNo (None, 64, 64, 128)  512         conv2d_20[0][0]                  
__________________________________________________________________________________________________
tf_op_layer_Softplus_16 (Tensor [(None, 64, 64, 128) 0           batch_normalization_17[0][0]     
__________________________________________________________________________________________________
tf_op_layer_Tanh_16 (TensorFlow [(None, 64, 64, 128) 0           tf_op_layer_Softplus_16[0][0]    
__________________________________________________________________________________________________
tf_op_layer_Mul_16 (TensorFlowO [(None, 64, 64, 128) 0           batch_normalization_17[0][0]     
                                                                 tf_op_layer_Tanh_16[0][0]        
__________________________________________________________________________________________________
dropout_6 (Dropout)             (None, 64, 64, 128)  0           tf_op_layer_Mul_16[0][0]         
__________________________________________________________________________________________________
conv2d_21 (Conv2D)              (None, 64, 64, 128)  147456      dropout_6[0][0]                  
__________________________________________________________________________________________________
batch_normalization_18 (BatchNo (None, 64, 64, 128)  512         conv2d_21[0][0]                  
__________________________________________________________________________________________________
max_pooling2d_2 (MaxPooling2D)  (None, 32, 32, 128)  0           batch_normalization_18[0][0]     
__________________________________________________________________________________________________
conv2d_18 (Conv2D)              (None, 32, 32, 128)  8192        add_5[0][0]                      
__________________________________________________________________________________________________
add_6 (Add)                     (None, 32, 32, 128)  0           max_pooling2d_2[0][0]            
                                                                 conv2d_18[0][0]                  
__________________________________________________________________________________________________
tf_op_layer_Softplus_17 (Tensor [(None, 32, 32, 128) 0           add_6[0][0]                      
__________________________________________________________________________________________________
tf_op_layer_Tanh_17 (TensorFlow [(None, 32, 32, 128) 0           tf_op_layer_Softplus_17[0][0]    
__________________________________________________________________________________________________
tf_op_layer_Mul_17 (TensorFlowO [(None, 32, 32, 128) 0           add_6[0][0]                      
                                                                 tf_op_layer_Tanh_17[0][0]        
__________________________________________________________________________________________________
conv2d_22 (Conv2D)              (None, 32, 32, 128)  147456      tf_op_layer_Mul_17[0][0]         
__________________________________________________________________________________________________
batch_normalization_19 (BatchNo (None, 32, 32, 128)  512         conv2d_22[0][0]                  
__________________________________________________________________________________________________
tf_op_layer_Softplus_18 (Tensor [(None, 32, 32, 128) 0           batch_normalization_19[0][0]     
__________________________________________________________________________________________________
tf_op_layer_Tanh_18 (TensorFlow [(None, 32, 32, 128) 0           tf_op_layer_Softplus_18[0][0]    
__________________________________________________________________________________________________
tf_op_layer_Mul_18 (TensorFlowO [(None, 32, 32, 128) 0           batch_normalization_19[0][0]     
                                                                 tf_op_layer_Tanh_18[0][0]        
__________________________________________________________________________________________________
dropout_7 (Dropout)             (None, 32, 32, 128)  0           tf_op_layer_Mul_18[0][0]         
__________________________________________________________________________________________________
conv2d_23 (Conv2D)              (None, 32, 32, 128)  147456      dropout_7[0][0]                  
__________________________________________________________________________________________________
batch_normalization_20 (BatchNo (None, 32, 32, 128)  512         conv2d_23[0][0]                  
__________________________________________________________________________________________________
global_average_pooling2d_4 (Glo (None, 128)          0           batch_normalization_20[0][0]     
__________________________________________________________________________________________________
dense_8 (Dense)                 (None, 32)           4128        global_average_pooling2d_4[0][0] 
__________________________________________________________________________________________________
tf_op_layer_Softplus_19 (Tensor [(None, 32)]         0           dense_8[0][0]                    
__________________________________________________________________________________________________
tf_op_layer_Tanh_19 (TensorFlow [(None, 32)]         0           tf_op_layer_Softplus_19[0][0]    
__________________________________________________________________________________________________
tf_op_layer_Mul_19 (TensorFlowO [(None, 32)]         0           dense_8[0][0]                    
                                                                 tf_op_layer_Tanh_19[0][0]        
__________________________________________________________________________________________________
dense_9 (Dense)                 (None, 128)          4224        tf_op_layer_Mul_19[0][0]         
__________________________________________________________________________________________________
activation_4 (Activation)       (None, 128)          0           dense_9[0][0]                    
__________________________________________________________________________________________________
reshape_4 (Reshape)             (None, 1, 1, 128)    0           activation_4[0][0]               
__________________________________________________________________________________________________
multiply_4 (Multiply)           (None, 32, 32, 128)  0           batch_normalization_20[0][0]     
                                                                 reshape_4[0][0]                  
__________________________________________________________________________________________________
add_7 (Add)                     (None, 32, 32, 128)  0           add_6[0][0]                      
                                                                 multiply_4[0][0]                 
__________________________________________________________________________________________________
tf_op_layer_Softplus_20 (Tensor [(None, 32, 32, 128) 0           add_7[0][0]                      
__________________________________________________________________________________________________
tf_op_layer_Tanh_20 (TensorFlow [(None, 32, 32, 128) 0           tf_op_layer_Softplus_20[0][0]    
__________________________________________________________________________________________________
tf_op_layer_Mul_20 (TensorFlowO [(None, 32, 32, 128) 0           add_7[0][0]                      
                                                                 tf_op_layer_Tanh_20[0][0]        
__________________________________________________________________________________________________
conv2d_24 (Conv2D)              (None, 32, 32, 128)  147456      tf_op_layer_Mul_20[0][0]         
__________________________________________________________________________________________________
batch_normalization_21 (BatchNo (None, 32, 32, 128)  512         conv2d_24[0][0]                  
__________________________________________________________________________________________________
tf_op_layer_Softplus_21 (Tensor [(None, 32, 32, 128) 0           batch_normalization_21[0][0]     
__________________________________________________________________________________________________
tf_op_layer_Tanh_21 (TensorFlow [(None, 32, 32, 128) 0           tf_op_layer_Softplus_21[0][0]    
__________________________________________________________________________________________________
tf_op_layer_Mul_21 (TensorFlowO [(None, 32, 32, 128) 0           batch_normalization_21[0][0]     
                                                                 tf_op_layer_Tanh_21[0][0]        
__________________________________________________________________________________________________
dropout_8 (Dropout)             (None, 32, 32, 128)  0           tf_op_layer_Mul_21[0][0]         
__________________________________________________________________________________________________
conv2d_25 (Conv2D)              (None, 32, 32, 128)  147456      dropout_8[0][0]                  
__________________________________________________________________________________________________
batch_normalization_22 (BatchNo (None, 32, 32, 128)  512         conv2d_25[0][0]                  
__________________________________________________________________________________________________
global_average_pooling2d_5 (Glo (None, 128)          0           batch_normalization_22[0][0]     
__________________________________________________________________________________________________
dense_10 (Dense)                (None, 32)           4128        global_average_pooling2d_5[0][0] 
__________________________________________________________________________________________________
tf_op_layer_Softplus_22 (Tensor [(None, 32)]         0           dense_10[0][0]                   
__________________________________________________________________________________________________
tf_op_layer_Tanh_22 (TensorFlow [(None, 32)]         0           tf_op_layer_Softplus_22[0][0]    
__________________________________________________________________________________________________
tf_op_layer_Mul_22 (TensorFlowO [(None, 32)]         0           dense_10[0][0]                   
                                                                 tf_op_layer_Tanh_22[0][0]        
__________________________________________________________________________________________________
dense_11 (Dense)                (None, 128)          4224        tf_op_layer_Mul_22[0][0]         
__________________________________________________________________________________________________
activation_5 (Activation)       (None, 128)          0           dense_11[0][0]                   
__________________________________________________________________________________________________
reshape_5 (Reshape)             (None, 1, 1, 128)    0           activation_5[0][0]               
__________________________________________________________________________________________________
multiply_5 (Multiply)           (None, 32, 32, 128)  0           batch_normalization_22[0][0]     
                                                                 reshape_5[0][0]                  
__________________________________________________________________________________________________
add_8 (Add)                     (None, 32, 32, 128)  0           add_7[0][0]                      
                                                                 multiply_5[0][0]                 
__________________________________________________________________________________________________
conv2d_28 (Conv2D)              (None, 32, 32, 256)  294912      add_8[0][0]                      
__________________________________________________________________________________________________
batch_normalization_24 (BatchNo (None, 32, 32, 256)  1024        conv2d_28[0][0]                  
__________________________________________________________________________________________________
tf_op_layer_Softplus_23 (Tensor [(None, 32, 32, 256) 0           batch_normalization_24[0][0]     
__________________________________________________________________________________________________
tf_op_layer_Tanh_23 (TensorFlow [(None, 32, 32, 256) 0           tf_op_layer_Softplus_23[0][0]    
__________________________________________________________________________________________________
tf_op_layer_Mul_23 (TensorFlowO [(None, 32, 32, 256) 0           batch_normalization_24[0][0]     
                                                                 tf_op_layer_Tanh_23[0][0]        
__________________________________________________________________________________________________
dropout_9 (Dropout)             (None, 32, 32, 256)  0           tf_op_layer_Mul_23[0][0]         
__________________________________________________________________________________________________
conv2d_29 (Conv2D)              (None, 32, 32, 256)  589824      dropout_9[0][0]                  
__________________________________________________________________________________________________
batch_normalization_25 (BatchNo (None, 32, 32, 256)  1024        conv2d_29[0][0]                  
__________________________________________________________________________________________________
max_pooling2d_3 (MaxPooling2D)  (None, 16, 16, 256)  0           batch_normalization_25[0][0]     
__________________________________________________________________________________________________
conv2d_26 (Conv2D)              (None, 16, 16, 256)  32768       add_8[0][0]                      
__________________________________________________________________________________________________
add_9 (Add)                     (None, 16, 16, 256)  0           max_pooling2d_3[0][0]            
                                                                 conv2d_26[0][0]                  
__________________________________________________________________________________________________
tf_op_layer_Softplus_24 (Tensor [(None, 16, 16, 256) 0           add_9[0][0]                      
__________________________________________________________________________________________________
tf_op_layer_Tanh_24 (TensorFlow [(None, 16, 16, 256) 0           tf_op_layer_Softplus_24[0][0]    
__________________________________________________________________________________________________
tf_op_layer_Mul_24 (TensorFlowO [(None, 16, 16, 256) 0           add_9[0][0]                      
                                                                 tf_op_layer_Tanh_24[0][0]        
__________________________________________________________________________________________________
conv2d_30 (Conv2D)              (None, 16, 16, 256)  589824      tf_op_layer_Mul_24[0][0]         
__________________________________________________________________________________________________
batch_normalization_26 (BatchNo (None, 16, 16, 256)  1024        conv2d_30[0][0]                  
__________________________________________________________________________________________________
tf_op_layer_Softplus_25 (Tensor [(None, 16, 16, 256) 0           batch_normalization_26[0][0]     
__________________________________________________________________________________________________
tf_op_layer_Tanh_25 (TensorFlow [(None, 16, 16, 256) 0           tf_op_layer_Softplus_25[0][0]    
__________________________________________________________________________________________________
tf_op_layer_Mul_25 (TensorFlowO [(None, 16, 16, 256) 0           batch_normalization_26[0][0]     
                                                                 tf_op_layer_Tanh_25[0][0]        
__________________________________________________________________________________________________
dropout_10 (Dropout)            (None, 16, 16, 256)  0           tf_op_layer_Mul_25[0][0]         
__________________________________________________________________________________________________
conv2d_31 (Conv2D)              (None, 16, 16, 256)  589824      dropout_10[0][0]                 
__________________________________________________________________________________________________
batch_normalization_27 (BatchNo (None, 16, 16, 256)  1024        conv2d_31[0][0]                  
__________________________________________________________________________________________________
global_average_pooling2d_6 (Glo (None, 256)          0           batch_normalization_27[0][0]     
__________________________________________________________________________________________________
dense_12 (Dense)                (None, 64)           16448       global_average_pooling2d_6[0][0] 
__________________________________________________________________________________________________
tf_op_layer_Softplus_26 (Tensor [(None, 64)]         0           dense_12[0][0]                   
__________________________________________________________________________________________________
tf_op_layer_Tanh_26 (TensorFlow [(None, 64)]         0           tf_op_layer_Softplus_26[0][0]    
__________________________________________________________________________________________________
tf_op_layer_Mul_26 (TensorFlowO [(None, 64)]         0           dense_12[0][0]                   
                                                                 tf_op_layer_Tanh_26[0][0]        
__________________________________________________________________________________________________
dense_13 (Dense)                (None, 256)          16640       tf_op_layer_Mul_26[0][0]         
__________________________________________________________________________________________________
activation_6 (Activation)       (None, 256)          0           dense_13[0][0]                   
__________________________________________________________________________________________________
reshape_6 (Reshape)             (None, 1, 1, 256)    0           activation_6[0][0]               
__________________________________________________________________________________________________
multiply_6 (Multiply)           (None, 16, 16, 256)  0           batch_normalization_27[0][0]     
                                                                 reshape_6[0][0]                  
__________________________________________________________________________________________________
add_10 (Add)                    (None, 16, 16, 256)  0           add_9[0][0]                      
                                                                 multiply_6[0][0]                 
__________________________________________________________________________________________________
tf_op_layer_Softplus_27 (Tensor [(None, 16, 16, 256) 0           add_10[0][0]                     
__________________________________________________________________________________________________
tf_op_layer_Tanh_27 (TensorFlow [(None, 16, 16, 256) 0           tf_op_layer_Softplus_27[0][0]    
__________________________________________________________________________________________________
tf_op_layer_Mul_27 (TensorFlowO [(None, 16, 16, 256) 0           add_10[0][0]                     
                                                                 tf_op_layer_Tanh_27[0][0]        
__________________________________________________________________________________________________
conv2d_32 (Conv2D)              (None, 16, 16, 256)  589824      tf_op_layer_Mul_27[0][0]         
__________________________________________________________________________________________________
batch_normalization_28 (BatchNo (None, 16, 16, 256)  1024        conv2d_32[0][0]                  
__________________________________________________________________________________________________
tf_op_layer_Softplus_28 (Tensor [(None, 16, 16, 256) 0           batch_normalization_28[0][0]     
__________________________________________________________________________________________________
tf_op_layer_Tanh_28 (TensorFlow [(None, 16, 16, 256) 0           tf_op_layer_Softplus_28[0][0]    
__________________________________________________________________________________________________
tf_op_layer_Mul_28 (TensorFlowO [(None, 16, 16, 256) 0           batch_normalization_28[0][0]     
                                                                 tf_op_layer_Tanh_28[0][0]        
__________________________________________________________________________________________________
dropout_11 (Dropout)            (None, 16, 16, 256)  0           tf_op_layer_Mul_28[0][0]         
__________________________________________________________________________________________________
conv2d_33 (Conv2D)              (None, 16, 16, 256)  589824      dropout_11[0][0]                 
__________________________________________________________________________________________________
batch_normalization_29 (BatchNo (None, 16, 16, 256)  1024        conv2d_33[0][0]                  
__________________________________________________________________________________________________
global_average_pooling2d_7 (Glo (None, 256)          0           batch_normalization_29[0][0]     
__________________________________________________________________________________________________
dense_14 (Dense)                (None, 64)           16448       global_average_pooling2d_7[0][0] 
__________________________________________________________________________________________________
tf_op_layer_Softplus_29 (Tensor [(None, 64)]         0           dense_14[0][0]                   
__________________________________________________________________________________________________
tf_op_layer_Tanh_29 (TensorFlow [(None, 64)]         0           tf_op_layer_Softplus_29[0][0]    
__________________________________________________________________________________________________
tf_op_layer_Mul_29 (TensorFlowO [(None, 64)]         0           dense_14[0][0]                   
                                                                 tf_op_layer_Tanh_29[0][0]        
__________________________________________________________________________________________________
dense_15 (Dense)                (None, 256)          16640       tf_op_layer_Mul_29[0][0]         
__________________________________________________________________________________________________
activation_7 (Activation)       (None, 256)          0           dense_15[0][0]                   
__________________________________________________________________________________________________
reshape_7 (Reshape)             (None, 1, 1, 256)    0           activation_7[0][0]               
__________________________________________________________________________________________________
multiply_7 (Multiply)           (None, 16, 16, 256)  0           batch_normalization_29[0][0]     
                                                                 reshape_7[0][0]                  
__________________________________________________________________________________________________
add_11 (Add)                    (None, 16, 16, 256)  0           add_10[0][0]                     
                                                                 multiply_7[0][0]                 
__________________________________________________________________________________________________
lambda_layer (LambdaLayer)      (None, 16, 16, 256)  100224      add_11[0][0]                     
__________________________________________________________________________________________________
global_average_pooling2d_9 (Glo (None, 256)          0           lambda_layer[0][0]               
__________________________________________________________________________________________________
global_average_pooling2d_8 (Glo (None, 256)          0           lambda_layer[0][0]               
==================================================================================================
Total params: 4,554,848
Trainable params: 4,548,384
Non-trainable params: 6,464
__________________________________________________________________________________________________
pass valid
pass valid
pass valid
pass valid
pass valid
pass valid
pass valid
pass valid
…
pass valid
pass valid
pass valid
pass valid
pass valid
pass valid
pass valid
pass valid
pass valid
pass valid
pass valid
pass valid
pass valid
pass valid
pass valid
pass valid
pass valid
pass valid
pass valid
pass valid
pass valid
pass valid
pass valid
pass valid
pass valid
pass valid
pass valid
pass valid
pass valid
pass valid
pass valid
pass valid
pass valid
pass valid
pass valid
pass valid
pass valid
pass valid
pass valid
pass valid
pass valid
pass valid
pass valid
pass valid
pass valid
pass valid
pass valid
pass valid
pass valid
pass valid
pass valid
pass valid
pass valid
pass valid
pass valid
(122, 256, 256, 3) 10 1
>>>> No pretrained available, model will be randomly initialized
Model: "functional_5"
__________________________________________________________________________________________________
Layer (type)                    Output Shape         Param #     Connected to                     
==================================================================================================
input_3 (InputLayer)            [(None, 260, 260, 3) 0                                            
__________________________________________________________________________________________________
stem_conv (Conv2D)              (None, 130, 130, 32) 864         input_3[0][0]                    
__________________________________________________________________________________________________
stem_bn (BatchNormalization)    (None, 130, 130, 32) 128         stem_conv[0][0]                  
__________________________________________________________________________________________________
stem_swish (Activation)         (None, 130, 130, 32) 0           stem_bn[0][0]                    
__________________________________________________________________________________________________
stack_0_block0_fu_conv (Conv2D) (None, 130, 130, 16) 4608        stem_swish[0][0]                 
__________________________________________________________________________________________________
stack_0_block0_fu_bn (BatchNorm (None, 130, 130, 16) 64          stack_0_block0_fu_conv[0][0]     
__________________________________________________________________________________________________
stack_0_block0_fu_swish (Activa (None, 130, 130, 16) 0           stack_0_block0_fu_bn[0][0]       
__________________________________________________________________________________________________
stack_0_block1_fu_conv (Conv2D) (None, 130, 130, 16) 2304        stack_0_block0_fu_swish[0][0]    
__________________________________________________________________________________________________
stack_0_block1_fu_bn (BatchNorm (None, 130, 130, 16) 64          stack_0_block1_fu_conv[0][0]     
__________________________________________________________________________________________________
stack_0_block1_fu_swish (Activa (None, 130, 130, 16) 0           stack_0_block1_fu_bn[0][0]       
__________________________________________________________________________________________________
add_12 (Add)                    (None, 130, 130, 16) 0           stack_0_block0_fu_swish[0][0]    
                                                                 stack_0_block1_fu_swish[0][0]    
__________________________________________________________________________________________________
stack_1_block0_sortcut_conv (Co (None, 65, 65, 64)   9216        add_12[0][0]                     
__________________________________________________________________________________________________
stack_1_block0_sortcut_bn (Batc (None, 65, 65, 64)   256         stack_1_block0_sortcut_conv[0][0]
__________________________________________________________________________________________________
stack_1_block0_sortcut_swish (A (None, 65, 65, 64)   0           stack_1_block0_sortcut_bn[0][0]  
__________________________________________________________________________________________________
stack_1_block0_MB_pw_conv (Conv (None, 65, 65, 32)   2048        stack_1_block0_sortcut_swish[0][0
__________________________________________________________________________________________________
stack_1_block0_MB_pw_bn (BatchN (None, 65, 65, 32)   128         stack_1_block0_MB_pw_conv[0][0]  
__________________________________________________________________________________________________
stack_1_block1_sortcut_conv (Co (None, 65, 65, 128)  36864       stack_1_block0_MB_pw_bn[0][0]    
__________________________________________________________________________________________________
stack_1_block1_sortcut_bn (Batc (None, 65, 65, 128)  512         stack_1_block1_sortcut_conv[0][0]
__________________________________________________________________________________________________
stack_1_block1_sortcut_swish (A (None, 65, 65, 128)  0           stack_1_block1_sortcut_bn[0][0]  
__________________________________________________________________________________________________
stack_1_block1_MB_pw_conv (Conv (None, 65, 65, 32)   4096        stack_1_block1_sortcut_swish[0][0
__________________________________________________________________________________________________
stack_1_block1_MB_pw_bn (BatchN (None, 65, 65, 32)   128         stack_1_block1_MB_pw_conv[0][0]  
__________________________________________________________________________________________________
add_13 (Add)                    (None, 65, 65, 32)   0           stack_1_block0_MB_pw_bn[0][0]    
                                                                 stack_1_block1_MB_pw_bn[0][0]    
__________________________________________________________________________________________________
stack_1_block2_sortcut_conv (Co (None, 65, 65, 128)  36864       add_13[0][0]                     
__________________________________________________________________________________________________
stack_1_block2_sortcut_bn (Batc (None, 65, 65, 128)  512         stack_1_block2_sortcut_conv[0][0]
__________________________________________________________________________________________________
stack_1_block2_sortcut_swish (A (None, 65, 65, 128)  0           stack_1_block2_sortcut_bn[0][0]  
__________________________________________________________________________________________________
stack_1_block2_MB_pw_conv (Conv (None, 65, 65, 32)   4096        stack_1_block2_sortcut_swish[0][0
__________________________________________________________________________________________________
stack_1_block2_MB_pw_bn (BatchN (None, 65, 65, 32)   128         stack_1_block2_MB_pw_conv[0][0]  
__________________________________________________________________________________________________
add_14 (Add)                    (None, 65, 65, 32)   0           add_13[0][0]                     
                                                                 stack_1_block2_MB_pw_bn[0][0]    
__________________________________________________________________________________________________
stack_2_block0_sortcut_conv (Co (None, 33, 33, 128)  36864       add_14[0][0]                     
__________________________________________________________________________________________________
stack_2_block0_sortcut_bn (Batc (None, 33, 33, 128)  512         stack_2_block0_sortcut_conv[0][0]
__________________________________________________________________________________________________
stack_2_block0_sortcut_swish (A (None, 33, 33, 128)  0           stack_2_block0_sortcut_bn[0][0]  
__________________________________________________________________________________________________
stack_2_block0_MB_pw_conv (Conv (None, 33, 33, 56)   7168        stack_2_block0_sortcut_swish[0][0
__________________________________________________________________________________________________
stack_2_block0_MB_pw_bn (BatchN (None, 33, 33, 56)   224         stack_2_block0_MB_pw_conv[0][0]  
__________________________________________________________________________________________________
stack_2_block1_sortcut_conv (Co (None, 33, 33, 224)  112896      stack_2_block0_MB_pw_bn[0][0]    
__________________________________________________________________________________________________
stack_2_block1_sortcut_bn (Batc (None, 33, 33, 224)  896         stack_2_block1_sortcut_conv[0][0]
__________________________________________________________________________________________________
stack_2_block1_sortcut_swish (A (None, 33, 33, 224)  0           stack_2_block1_sortcut_bn[0][0]  
__________________________________________________________________________________________________
stack_2_block1_MB_pw_conv (Conv (None, 33, 33, 56)   12544       stack_2_block1_sortcut_swish[0][0
__________________________________________________________________________________________________
stack_2_block1_MB_pw_bn (BatchN (None, 33, 33, 56)   224         stack_2_block1_MB_pw_conv[0][0]  
__________________________________________________________________________________________________
add_15 (Add)                    (None, 33, 33, 56)   0           stack_2_block0_MB_pw_bn[0][0]    
                                                                 stack_2_block1_MB_pw_bn[0][0]    
__________________________________________________________________________________________________
stack_2_block2_sortcut_conv (Co (None, 33, 33, 224)  112896      add_15[0][0]                     
__________________________________________________________________________________________________
stack_2_block2_sortcut_bn (Batc (None, 33, 33, 224)  896         stack_2_block2_sortcut_conv[0][0]
__________________________________________________________________________________________________
stack_2_block2_sortcut_swish (A (None, 33, 33, 224)  0           stack_2_block2_sortcut_bn[0][0]  
__________________________________________________________________________________________________
stack_2_block2_MB_pw_conv (Conv (None, 33, 33, 56)   12544       stack_2_block2_sortcut_swish[0][0
__________________________________________________________________________________________________
stack_2_block2_MB_pw_bn (BatchN (None, 33, 33, 56)   224         stack_2_block2_MB_pw_conv[0][0]  
__________________________________________________________________________________________________
add_16 (Add)                    (None, 33, 33, 56)   0           add_15[0][0]                     
                                                                 stack_2_block2_MB_pw_bn[0][0]    
__________________________________________________________________________________________________
stack_3_block0_sortcut_conv (Co (None, 33, 33, 224)  12544       add_16[0][0]                     
__________________________________________________________________________________________________
stack_3_block0_sortcut_bn (Batc (None, 33, 33, 224)  896         stack_3_block0_sortcut_conv[0][0]
__________________________________________________________________________________________________
stack_3_block0_sortcut_swish (A (None, 33, 33, 224)  0           stack_3_block0_sortcut_bn[0][0]  
__________________________________________________________________________________________________
stack_3_block0_MB_dw_ (Depthwis (None, 17, 17, 224)  2016        stack_3_block0_sortcut_swish[0][0
__________________________________________________________________________________________________
stack_3_block0_MB_dw_bn (BatchN (None, 17, 17, 224)  896         stack_3_block0_MB_dw_[0][0]      
__________________________________________________________________________________________________
stack_3_block0_MB_dw_swish (Act (None, 17, 17, 224)  0           stack_3_block0_MB_dw_bn[0][0]    
__________________________________________________________________________________________________
tf_op_layer_Mean (TensorFlowOpL [(None, 1, 1, 224)]  0           stack_3_block0_MB_dw_swish[0][0] 
__________________________________________________________________________________________________
stack_3_block0_se_1_conv (Conv2 (None, 1, 1, 14)     3150        tf_op_layer_Mean[0][0]           
__________________________________________________________________________________________________
activation_8 (Activation)       (None, 1, 1, 14)     0           stack_3_block0_se_1_conv[0][0]   
__________________________________________________________________________________________________
stack_3_block0_se_2_conv (Conv2 (None, 1, 1, 224)    3360        activation_8[0][0]               
__________________________________________________________________________________________________
activation_9 (Activation)       (None, 1, 1, 224)    0           stack_3_block0_se_2_conv[0][0]   
__________________________________________________________________________________________________
multiply_8 (Multiply)           (None, 17, 17, 224)  0           stack_3_block0_MB_dw_swish[0][0] 
                                                                 activation_9[0][0]               
__________________________________________________________________________________________________
stack_3_block0_MB_pw_conv (Conv (None, 17, 17, 104)  23296       multiply_8[0][0]                 
__________________________________________________________________________________________________
stack_3_block0_MB_pw_bn (BatchN (None, 17, 17, 104)  416         stack_3_block0_MB_pw_conv[0][0]  
__________________________________________________________________________________________________
stack_3_block1_sortcut_conv (Co (None, 17, 17, 416)  43264       stack_3_block0_MB_pw_bn[0][0]    
__________________________________________________________________________________________________
stack_3_block1_sortcut_bn (Batc (None, 17, 17, 416)  1664        stack_3_block1_sortcut_conv[0][0]
__________________________________________________________________________________________________
stack_3_block1_sortcut_swish (A (None, 17, 17, 416)  0           stack_3_block1_sortcut_bn[0][0]  
__________________________________________________________________________________________________
stack_3_block1_MB_dw_ (Depthwis (None, 17, 17, 416)  3744        stack_3_block1_sortcut_swish[0][0
__________________________________________________________________________________________________
stack_3_block1_MB_dw_bn (BatchN (None, 17, 17, 416)  1664        stack_3_block1_MB_dw_[0][0]      
__________________________________________________________________________________________________
stack_3_block1_MB_dw_swish (Act (None, 17, 17, 416)  0           stack_3_block1_MB_dw_bn[0][0]    
__________________________________________________________________________________________________
tf_op_layer_Mean_1 (TensorFlowO [(None, 1, 1, 416)]  0           stack_3_block1_MB_dw_swish[0][0] 
__________________________________________________________________________________________________
stack_3_block1_se_1_conv (Conv2 (None, 1, 1, 26)     10842       tf_op_layer_Mean_1[0][0]         
__________________________________________________________________________________________________
activation_10 (Activation)      (None, 1, 1, 26)     0           stack_3_block1_se_1_conv[0][0]   
__________________________________________________________________________________________________
stack_3_block1_se_2_conv (Conv2 (None, 1, 1, 416)    11232       activation_10[0][0]              
__________________________________________________________________________________________________
activation_11 (Activation)      (None, 1, 1, 416)    0           stack_3_block1_se_2_conv[0][0]   
__________________________________________________________________________________________________
multiply_9 (Multiply)           (None, 17, 17, 416)  0           stack_3_block1_MB_dw_swish[0][0] 
                                                                 activation_11[0][0]              
__________________________________________________________________________________________________
stack_3_block1_MB_pw_conv (Conv (None, 17, 17, 104)  43264       multiply_9[0][0]                 
__________________________________________________________________________________________________
stack_3_block1_MB_pw_bn (BatchN (None, 17, 17, 104)  416         stack_3_block1_MB_pw_conv[0][0]  
__________________________________________________________________________________________________
add_17 (Add)                    (None, 17, 17, 104)  0           stack_3_block0_MB_pw_bn[0][0]    
                                                                 stack_3_block1_MB_pw_bn[0][0]    
__________________________________________________________________________________________________
stack_3_block2_sortcut_conv (Co (None, 17, 17, 416)  43264       add_17[0][0]                     
__________________________________________________________________________________________________
stack_3_block2_sortcut_bn (Batc (None, 17, 17, 416)  1664        stack_3_block2_sortcut_conv[0][0]
__________________________________________________________________________________________________
stack_3_block2_sortcut_swish (A (None, 17, 17, 416)  0           stack_3_block2_sortcut_bn[0][0]  
__________________________________________________________________________________________________
stack_3_block2_MB_dw_ (Depthwis (None, 17, 17, 416)  3744        stack_3_block2_sortcut_swish[0][0
__________________________________________________________________________________________________
stack_3_block2_MB_dw_bn (BatchN (None, 17, 17, 416)  1664        stack_3_block2_MB_dw_[0][0]      
__________________________________________________________________________________________________
stack_3_block2_MB_dw_swish (Act (None, 17, 17, 416)  0           stack_3_block2_MB_dw_bn[0][0]    
__________________________________________________________________________________________________
tf_op_layer_Mean_2 (TensorFlowO [(None, 1, 1, 416)]  0           stack_3_block2_MB_dw_swish[0][0] 
__________________________________________________________________________________________________
stack_3_block2_se_1_conv (Conv2 (None, 1, 1, 26)     10842       tf_op_layer_Mean_2[0][0]         
__________________________________________________________________________________________________
activation_12 (Activation)      (None, 1, 1, 26)     0           stack_3_block2_se_1_conv[0][0]   
__________________________________________________________________________________________________
stack_3_block2_se_2_conv (Conv2 (None, 1, 1, 416)    11232       activation_12[0][0]              
__________________________________________________________________________________________________
activation_13 (Activation)      (None, 1, 1, 416)    0           stack_3_block2_se_2_conv[0][0]   
__________________________________________________________________________________________________
multiply_10 (Multiply)          (None, 17, 17, 416)  0           stack_3_block2_MB_dw_swish[0][0] 
                                                                 activation_13[0][0]              
__________________________________________________________________________________________________
stack_3_block2_MB_pw_conv (Conv (None, 17, 17, 104)  43264       multiply_10[0][0]                
__________________________________________________________________________________________________
stack_3_block2_MB_pw_bn (BatchN (None, 17, 17, 104)  416         stack_3_block2_MB_pw_conv[0][0]  
__________________________________________________________________________________________________
add_18 (Add)                    (None, 17, 17, 104)  0           add_17[0][0]                     
                                                                 stack_3_block2_MB_pw_bn[0][0]    
__________________________________________________________________________________________________
stack_3_block3_sortcut_conv (Co (None, 17, 17, 416)  43264       add_18[0][0]                     
__________________________________________________________________________________________________
stack_3_block3_sortcut_bn (Batc (None, 17, 17, 416)  1664        stack_3_block3_sortcut_conv[0][0]
__________________________________________________________________________________________________
stack_3_block3_sortcut_swish (A (None, 17, 17, 416)  0           stack_3_block3_sortcut_bn[0][0]  
__________________________________________________________________________________________________
stack_3_block3_MB_dw_ (Depthwis (None, 17, 17, 416)  3744        stack_3_block3_sortcut_swish[0][0
__________________________________________________________________________________________________
stack_3_block3_MB_dw_bn (BatchN (None, 17, 17, 416)  1664        stack_3_block3_MB_dw_[0][0]      
__________________________________________________________________________________________________
stack_3_block3_MB_dw_swish (Act (None, 17, 17, 416)  0           stack_3_block3_MB_dw_bn[0][0]    
__________________________________________________________________________________________________
tf_op_layer_Mean_3 (TensorFlowO [(None, 1, 1, 416)]  0           stack_3_block3_MB_dw_swish[0][0] 
__________________________________________________________________________________________________
stack_3_block3_se_1_conv (Conv2 (None, 1, 1, 26)     10842       tf_op_layer_Mean_3[0][0]         
__________________________________________________________________________________________________
activation_14 (Activation)      (None, 1, 1, 26)     0           stack_3_block3_se_1_conv[0][0]   
__________________________________________________________________________________________________
stack_3_block3_se_2_conv (Conv2 (None, 1, 1, 416)    11232       activation_14[0][0]              
__________________________________________________________________________________________________
activation_15 (Activation)      (None, 1, 1, 416)    0           stack_3_block3_se_2_conv[0][0]   
__________________________________________________________________________________________________
multiply_11 (Multiply)          (None, 17, 17, 416)  0           stack_3_block3_MB_dw_swish[0][0] 
                                                                 activation_15[0][0]              
__________________________________________________________________________________________________
stack_3_block3_MB_pw_conv (Conv (None, 17, 17, 104)  43264       multiply_11[0][0]                
__________________________________________________________________________________________________
stack_3_block3_MB_pw_bn (BatchN (None, 17, 17, 104)  416         stack_3_block3_MB_pw_conv[0][0]  
__________________________________________________________________________________________________
add_19 (Add)                    (None, 17, 17, 104)  0           add_18[0][0]                     
                                                                 stack_3_block3_MB_pw_bn[0][0]    
__________________________________________________________________________________________________
stack_4_block0_sortcut_conv (Co (None, 17, 17, 624)  64896       add_19[0][0]                     
__________________________________________________________________________________________________
stack_4_block0_sortcut_bn (Batc (None, 17, 17, 624)  2496        stack_4_block0_sortcut_conv[0][0]
__________________________________________________________________________________________________
stack_4_block0_sortcut_swish (A (None, 17, 17, 624)  0           stack_4_block0_sortcut_bn[0][0]  
__________________________________________________________________________________________________
stack_4_block0_MB_dw_ (Depthwis (None, 17, 17, 624)  5616        stack_4_block0_sortcut_swish[0][0
__________________________________________________________________________________________________
stack_4_block0_MB_dw_bn (BatchN (None, 17, 17, 624)  2496        stack_4_block0_MB_dw_[0][0]      
__________________________________________________________________________________________________
stack_4_block0_MB_dw_swish (Act (None, 17, 17, 624)  0           stack_4_block0_MB_dw_bn[0][0]    
__________________________________________________________________________________________________
tf_op_layer_Mean_4 (TensorFlowO [(None, 1, 1, 624)]  0           stack_4_block0_MB_dw_swish[0][0] 
__________________________________________________________________________________________________
stack_4_block0_se_1_conv (Conv2 (None, 1, 1, 26)     16250       tf_op_layer_Mean_4[0][0]         
__________________________________________________________________________________________________
activation_16 (Activation)      (None, 1, 1, 26)     0           stack_4_block0_se_1_conv[0][0]   
__________________________________________________________________________________________________
stack_4_block0_se_2_conv (Conv2 (None, 1, 1, 624)    16848       activation_16[0][0]              
__________________________________________________________________________________________________
activation_17 (Activation)      (None, 1, 1, 624)    0           stack_4_block0_se_2_conv[0][0]   
__________________________________________________________________________________________________
multiply_12 (Multiply)          (None, 17, 17, 624)  0           stack_4_block0_MB_dw_swish[0][0] 
                                                                 activation_17[0][0]              
__________________________________________________________________________________________________
stack_4_block0_MB_pw_conv (Conv (None, 17, 17, 120)  74880       multiply_12[0][0]                
__________________________________________________________________________________________________
stack_4_block0_MB_pw_bn (BatchN (None, 17, 17, 120)  480         stack_4_block0_MB_pw_conv[0][0]  
__________________________________________________________________________________________________
stack_4_block1_sortcut_conv (Co (None, 17, 17, 720)  86400       stack_4_block0_MB_pw_bn[0][0]    
__________________________________________________________________________________________________
stack_4_block1_sortcut_bn (Batc (None, 17, 17, 720)  2880        stack_4_block1_sortcut_conv[0][0]
__________________________________________________________________________________________________
stack_4_block1_sortcut_swish (A (None, 17, 17, 720)  0           stack_4_block1_sortcut_bn[0][0]  
__________________________________________________________________________________________________
stack_4_block1_MB_dw_ (Depthwis (None, 17, 17, 720)  6480        stack_4_block1_sortcut_swish[0][0
__________________________________________________________________________________________________
stack_4_block1_MB_dw_bn (BatchN (None, 17, 17, 720)  2880        stack_4_block1_MB_dw_[0][0]      
__________________________________________________________________________________________________
stack_4_block1_MB_dw_swish (Act (None, 17, 17, 720)  0           stack_4_block1_MB_dw_bn[0][0]    
__________________________________________________________________________________________________
tf_op_layer_Mean_5 (TensorFlowO [(None, 1, 1, 720)]  0           stack_4_block1_MB_dw_swish[0][0] 
__________________________________________________________________________________________________
stack_4_block1_se_1_conv (Conv2 (None, 1, 1, 30)     21630       tf_op_layer_Mean_5[0][0]         
__________________________________________________________________________________________________
activation_18 (Activation)      (None, 1, 1, 30)     0           stack_4_block1_se_1_conv[0][0]   
__________________________________________________________________________________________________
stack_4_block1_se_2_conv (Conv2 (None, 1, 1, 720)    22320       activation_18[0][0]              
__________________________________________________________________________________________________
activation_19 (Activation)      (None, 1, 1, 720)    0           stack_4_block1_se_2_conv[0][0]   
__________________________________________________________________________________________________
multiply_13 (Multiply)          (None, 17, 17, 720)  0           stack_4_block1_MB_dw_swish[0][0] 
                                                                 activation_19[0][0]              
__________________________________________________________________________________________________
stack_4_block1_MB_pw_conv (Conv (None, 17, 17, 120)  86400       multiply_13[0][0]                
__________________________________________________________________________________________________
stack_4_block1_MB_pw_bn (BatchN (None, 17, 17, 120)  480         stack_4_block1_MB_pw_conv[0][0]  
__________________________________________________________________________________________________
add_20 (Add)                    (None, 17, 17, 120)  0           stack_4_block0_MB_pw_bn[0][0]    
                                                                 stack_4_block1_MB_pw_bn[0][0]    
__________________________________________________________________________________________________
stack_4_block2_sortcut_conv (Co (None, 17, 17, 720)  86400       add_20[0][0]                     
__________________________________________________________________________________________________
stack_4_block2_sortcut_bn (Batc (None, 17, 17, 720)  2880        stack_4_block2_sortcut_conv[0][0]
__________________________________________________________________________________________________
stack_4_block2_sortcut_swish (A (None, 17, 17, 720)  0           stack_4_block2_sortcut_bn[0][0]  
__________________________________________________________________________________________________
stack_4_block2_MB_dw_ (Depthwis (None, 17, 17, 720)  6480        stack_4_block2_sortcut_swish[0][0
__________________________________________________________________________________________________
stack_4_block2_MB_dw_bn (BatchN (None, 17, 17, 720)  2880        stack_4_block2_MB_dw_[0][0]      
__________________________________________________________________________________________________
stack_4_block2_MB_dw_swish (Act (None, 17, 17, 720)  0           stack_4_block2_MB_dw_bn[0][0]    
…
__________________________________________________________________________________________________
stack_4_block0_se_1_conv (Conv2 (None, 1, 1, 26)     16250       tf_op_layer_Mean_4[0][0]         
__________________________________________________________________________________________________
activation_16 (Activation)      (None, 1, 1, 26)     0           stack_4_block0_se_1_conv[0][0]   
__________________________________________________________________________________________________
stack_4_block0_se_2_conv (Conv2 (None, 1, 1, 624)    16848       activation_16[0][0]              
__________________________________________________________________________________________________
activation_17 (Activation)      (None, 1, 1, 624)    0           stack_4_block0_se_2_conv[0][0]   
__________________________________________________________________________________________________
multiply_12 (Multiply)          (None, 17, 17, 624)  0           stack_4_block0_MB_dw_swish[0][0] 
                                                                 activation_17[0][0]              
__________________________________________________________________________________________________
stack_4_block0_MB_pw_conv (Conv (None, 17, 17, 120)  74880       multiply_12[0][0]                
__________________________________________________________________________________________________
stack_4_block0_MB_pw_bn (BatchN (None, 17, 17, 120)  480         stack_4_block0_MB_pw_conv[0][0]  
__________________________________________________________________________________________________
stack_4_block1_sortcut_conv (Co (None, 17, 17, 720)  86400       stack_4_block0_MB_pw_bn[0][0]    
__________________________________________________________________________________________________
stack_4_block1_sortcut_bn (Batc (None, 17, 17, 720)  2880        stack_4_block1_sortcut_conv[0][0]
__________________________________________________________________________________________________
stack_4_block1_sortcut_swish (A (None, 17, 17, 720)  0           stack_4_block1_sortcut_bn[0][0]  
__________________________________________________________________________________________________
stack_4_block1_MB_dw_ (Depthwis (None, 17, 17, 720)  6480        stack_4_block1_sortcut_swish[0][0
__________________________________________________________________________________________________
stack_4_block1_MB_dw_bn (BatchN (None, 17, 17, 720)  2880        stack_4_block1_MB_dw_[0][0]      
__________________________________________________________________________________________________
stack_4_block1_MB_dw_swish (Act (None, 17, 17, 720)  0           stack_4_block1_MB_dw_bn[0][0]    
__________________________________________________________________________________________________
tf_op_layer_Mean_5 (TensorFlowO [(None, 1, 1, 720)]  0           stack_4_block1_MB_dw_swish[0][0] 
__________________________________________________________________________________________________
stack_4_block1_se_1_conv (Conv2 (None, 1, 1, 30)     21630       tf_op_layer_Mean_5[0][0]         
__________________________________________________________________________________________________
activation_18 (Activation)      (None, 1, 1, 30)     0           stack_4_block1_se_1_conv[0][0]   
__________________________________________________________________________________________________
stack_4_block1_se_2_conv (Conv2 (None, 1, 1, 720)    22320       activation_18[0][0]              
__________________________________________________________________________________________________
activation_19 (Activation)      (None, 1, 1, 720)    0           stack_4_block1_se_2_conv[0][0]   
__________________________________________________________________________________________________
multiply_13 (Multiply)          (None, 17, 17, 720)  0           stack_4_block1_MB_dw_swish[0][0] 
                                                                 activation_19[0][0]              
__________________________________________________________________________________________________
stack_4_block1_MB_pw_conv (Conv (None, 17, 17, 120)  86400       multiply_13[0][0]                
__________________________________________________________________________________________________
stack_4_block1_MB_pw_bn (BatchN (None, 17, 17, 120)  480         stack_4_block1_MB_pw_conv[0][0]  
__________________________________________________________________________________________________
add_20 (Add)                    (None, 17, 17, 120)  0           stack_4_block0_MB_pw_bn[0][0]    
                                                                 stack_4_block1_MB_pw_bn[0][0]    
__________________________________________________________________________________________________
stack_4_block2_sortcut_conv (Co (None, 17, 17, 720)  86400       add_20[0][0]                     
__________________________________________________________________________________________________
stack_4_block2_sortcut_bn (Batc (None, 17, 17, 720)  2880        stack_4_block2_sortcut_conv[0][0]
__________________________________________________________________________________________________
stack_4_block2_sortcut_swish (A (None, 17, 17, 720)  0           stack_4_block2_sortcut_bn[0][0]  
__________________________________________________________________________________________________
stack_4_block2_MB_dw_ (Depthwis (None, 17, 17, 720)  6480        stack_4_block2_sortcut_swish[0][0
__________________________________________________________________________________________________
stack_4_block2_MB_dw_bn (BatchN (None, 17, 17, 720)  2880        stack_4_block2_MB_dw_[0][0]      
__________________________________________________________________________________________________
stack_4_block2_MB_dw_swish (Act (None, 17, 17, 720)  0           stack_4_block2_MB_dw_bn[0][0]    
__________________________________________________________________________________________________
tf_op_layer_Mean_6 (TensorFlowO [(None, 1, 1, 720)]  0           stack_4_block2_MB_dw_swish[0][0] 
__________________________________________________________________________________________________
stack_4_block2_se_1_conv (Conv2 (None, 1, 1, 30)     21630       tf_op_layer_Mean_6[0][0]         
__________________________________________________________________________________________________
activation_20 (Activation)      (None, 1, 1, 30)     0           stack_4_block2_se_1_conv[0][0]   
__________________________________________________________________________________________________
stack_4_block2_se_2_conv (Conv2 (None, 1, 1, 720)    22320       activation_20[0][0]              
__________________________________________________________________________________________________
activation_21 (Activation)      (None, 1, 1, 720)    0           stack_4_block2_se_2_conv[0][0]   
__________________________________________________________________________________________________
multiply_14 (Multiply)          (None, 17, 17, 720)  0           stack_4_block2_MB_dw_swish[0][0] 
                                                                 activation_21[0][0]              
__________________________________________________________________________________________________
stack_4_block2_MB_pw_conv (Conv (None, 17, 17, 120)  86400       multiply_14[0][0]                
__________________________________________________________________________________________________
stack_4_block2_MB_pw_bn (BatchN (None, 17, 17, 120)  480         stack_4_block2_MB_pw_conv[0][0]  
__________________________________________________________________________________________________
add_21 (Add)                    (None, 17, 17, 120)  0           add_20[0][0]                     
                                                                 stack_4_block2_MB_pw_bn[0][0]    
__________________________________________________________________________________________________
stack_4_block3_sortcut_conv (Co (None, 17, 17, 720)  86400       add_21[0][0]                     
__________________________________________________________________________________________________
stack_4_block3_sortcut_bn (Batc (None, 17, 17, 720)  2880        stack_4_block3_sortcut_conv[0][0]
__________________________________________________________________________________________________
stack_4_block3_sortcut_swish (A (None, 17, 17, 720)  0           stack_4_block3_sortcut_bn[0][0]  
__________________________________________________________________________________________________
stack_4_block3_MB_dw_ (Depthwis (None, 17, 17, 720)  6480        stack_4_block3_sortcut_swish[0][0
__________________________________________________________________________________________________
stack_4_block3_MB_dw_bn (BatchN (None, 17, 17, 720)  2880        stack_4_block3_MB_dw_[0][0]      
__________________________________________________________________________________________________
stack_4_block3_MB_dw_swish (Act (None, 17, 17, 720)  0           stack_4_block3_MB_dw_bn[0][0]    
__________________________________________________________________________________________________
tf_op_layer_Mean_7 (TensorFlowO [(None, 1, 1, 720)]  0           stack_4_block3_MB_dw_swish[0][0] 
__________________________________________________________________________________________________
stack_4_block3_se_1_conv (Conv2 (None, 1, 1, 30)     21630       tf_op_layer_Mean_7[0][0]         
__________________________________________________________________________________________________
activation_22 (Activation)      (None, 1, 1, 30)     0           stack_4_block3_se_1_conv[0][0]   
__________________________________________________________________________________________________
stack_4_block3_se_2_conv (Conv2 (None, 1, 1, 720)    22320       activation_22[0][0]              
__________________________________________________________________________________________________
activation_23 (Activation)      (None, 1, 1, 720)    0           stack_4_block3_se_2_conv[0][0]   
__________________________________________________________________________________________________
multiply_15 (Multiply)          (None, 17, 17, 720)  0           stack_4_block3_MB_dw_swish[0][0] 
                                                                 activation_23[0][0]              
__________________________________________________________________________________________________
stack_4_block3_MB_pw_conv (Conv (None, 17, 17, 120)  86400       multiply_15[0][0]                
__________________________________________________________________________________________________
stack_4_block3_MB_pw_bn (BatchN (None, 17, 17, 120)  480         stack_4_block3_MB_pw_conv[0][0]  
__________________________________________________________________________________________________
add_22 (Add)                    (None, 17, 17, 120)  0           add_21[0][0]                     
                                                                 stack_4_block3_MB_pw_bn[0][0]    
__________________________________________________________________________________________________
stack_4_block4_sortcut_conv (Co (None, 17, 17, 720)  86400       add_22[0][0]                     
__________________________________________________________________________________________________
stack_4_block4_sortcut_bn (Batc (None, 17, 17, 720)  2880        stack_4_block4_sortcut_conv[0][0]
__________________________________________________________________________________________________
stack_4_block4_sortcut_swish (A (None, 17, 17, 720)  0           stack_4_block4_sortcut_bn[0][0]  
__________________________________________________________________________________________________
stack_4_block4_MB_dw_ (Depthwis (None, 17, 17, 720)  6480        stack_4_block4_sortcut_swish[0][0
__________________________________________________________________________________________________
stack_4_block4_MB_dw_bn (BatchN (None, 17, 17, 720)  2880        stack_4_block4_MB_dw_[0][0]      
__________________________________________________________________________________________________
stack_4_block4_MB_dw_swish (Act (None, 17, 17, 720)  0           stack_4_block4_MB_dw_bn[0][0]    
__________________________________________________________________________________________________
tf_op_layer_Mean_8 (TensorFlowO [(None, 1, 1, 720)]  0           stack_4_block4_MB_dw_swish[0][0] 
__________________________________________________________________________________________________
stack_4_block4_se_1_conv (Conv2 (None, 1, 1, 30)     21630       tf_op_layer_Mean_8[0][0]         
__________________________________________________________________________________________________
activation_24 (Activation)      (None, 1, 1, 30)     0           stack_4_block4_se_1_conv[0][0]   
__________________________________________________________________________________________________
stack_4_block4_se_2_conv (Conv2 (None, 1, 1, 720)    22320       activation_24[0][0]              
__________________________________________________________________________________________________
activation_25 (Activation)      (None, 1, 1, 720)    0           stack_4_block4_se_2_conv[0][0]   
__________________________________________________________________________________________________
multiply_16 (Multiply)          (None, 17, 17, 720)  0           stack_4_block4_MB_dw_swish[0][0] 
                                                                 activation_25[0][0]              
__________________________________________________________________________________________________
stack_4_block4_MB_pw_conv (Conv (None, 17, 17, 120)  86400       multiply_16[0][0]                
__________________________________________________________________________________________________
stack_4_block4_MB_pw_bn (BatchN (None, 17, 17, 120)  480         stack_4_block4_MB_pw_conv[0][0]  
__________________________________________________________________________________________________
add_23 (Add)                    (None, 17, 17, 120)  0           add_22[0][0]                     
                                                                 stack_4_block4_MB_pw_bn[0][0]    
__________________________________________________________________________________________________
stack_4_block5_sortcut_conv (Co (None, 17, 17, 720)  86400       add_23[0][0]                     
__________________________________________________________________________________________________
stack_4_block5_sortcut_bn (Batc (None, 17, 17, 720)  2880        stack_4_block5_sortcut_conv[0][0]
__________________________________________________________________________________________________
stack_4_block5_sortcut_swish (A (None, 17, 17, 720)  0           stack_4_block5_sortcut_bn[0][0]  
__________________________________________________________________________________________________
stack_4_block5_MB_dw_ (Depthwis (None, 17, 17, 720)  6480        stack_4_block5_sortcut_swish[0][0
__________________________________________________________________________________________________
stack_4_block5_MB_dw_bn (BatchN (None, 17, 17, 720)  2880        stack_4_block5_MB_dw_[0][0]      
__________________________________________________________________________________________________
stack_4_block5_MB_dw_swish (Act (None, 17, 17, 720)  0           stack_4_block5_MB_dw_bn[0][0]    
__________________________________________________________________________________________________
tf_op_layer_Mean_9 (TensorFlowO [(None, 1, 1, 720)]  0           stack_4_block5_MB_dw_swish[0][0] 
__________________________________________________________________________________________________
stack_4_block5_se_1_conv (Conv2 (None, 1, 1, 30)     21630       tf_op_layer_Mean_9[0][0]         
__________________________________________________________________________________________________
activation_26 (Activation)      (None, 1, 1, 30)     0           stack_4_block5_se_1_conv[0][0]   
__________________________________________________________________________________________________
stack_4_block5_se_2_conv (Conv2 (None, 1, 1, 720)    22320       activation_26[0][0]              
__________________________________________________________________________________________________
activation_27 (Activation)      (None, 1, 1, 720)    0           stack_4_block5_se_2_conv[0][0]   
__________________________________________________________________________________________________
multiply_17 (Multiply)          (None, 17, 17, 720)  0           stack_4_block5_MB_dw_swish[0][0] 
                                                                 activation_27[0][0]              
__________________________________________________________________________________________________
stack_4_block5_MB_pw_conv (Conv (None, 17, 17, 120)  86400       multiply_17[0][0]                
__________________________________________________________________________________________________
stack_4_block5_MB_pw_bn (BatchN (None, 17, 17, 120)  480         stack_4_block5_MB_pw_conv[0][0]  
__________________________________________________________________________________________________
add_24 (Add)                    (None, 17, 17, 120)  0           add_23[0][0]                     
                                                                 stack_4_block5_MB_pw_bn[0][0]    
__________________________________________________________________________________________________
stack_5_block0_sortcut_conv (Co (None, 17, 17, 720)  86400       add_24[0][0]                     
__________________________________________________________________________________________________
stack_5_block0_sortcut_bn (Batc (None, 17, 17, 720)  2880        stack_5_block0_sortcut_conv[0][0]
__________________________________________________________________________________________________
stack_5_block0_sortcut_swish (A (None, 17, 17, 720)  0           stack_5_block0_sortcut_bn[0][0]  
__________________________________________________________________________________________________
stack_5_block0_MB_dw_ (Depthwis (None, 9, 9, 720)    6480        stack_5_block0_sortcut_swish[0][0
__________________________________________________________________________________________________
stack_5_block0_MB_dw_bn (BatchN (None, 9, 9, 720)    2880        stack_5_block0_MB_dw_[0][0]      
__________________________________________________________________________________________________
stack_5_block0_MB_dw_swish (Act (None, 9, 9, 720)    0           stack_5_block0_MB_dw_bn[0][0]    
__________________________________________________________________________________________________
tf_op_layer_Mean_10 (TensorFlow [(None, 1, 1, 720)]  0           stack_5_block0_MB_dw_swish[0][0] 
__________________________________________________________________________________________________
stack_5_block0_se_1_conv (Conv2 (None, 1, 1, 30)     21630       tf_op_layer_Mean_10[0][0]        
__________________________________________________________________________________________________
activation_28 (Activation)      (None, 1, 1, 30)     0           stack_5_block0_se_1_conv[0][0]   
__________________________________________________________________________________________________
stack_5_block0_se_2_conv (Conv2 (None, 1, 1, 720)    22320       activation_28[0][0]              
__________________________________________________________________________________________________
activation_29 (Activation)      (None, 1, 1, 720)    0           stack_5_block0_se_2_conv[0][0]   
__________________________________________________________________________________________________
multiply_18 (Multiply)          (None, 9, 9, 720)    0           stack_5_block0_MB_dw_swish[0][0] 
                                                                 activation_29[0][0]              
__________________________________________________________________________________________________
stack_5_block0_MB_pw_conv (Conv (None, 9, 9, 208)    149760      multiply_18[0][0]                
__________________________________________________________________________________________________
stack_5_block0_MB_pw_bn (BatchN (None, 9, 9, 208)    832         stack_5_block0_MB_pw_conv[0][0]  
__________________________________________________________________________________________________
stack_5_block1_sortcut_conv (Co (None, 9, 9, 1248)   259584      stack_5_block0_MB_pw_bn[0][0]    
__________________________________________________________________________________________________
stack_5_block1_sortcut_bn (Batc (None, 9, 9, 1248)   4992        stack_5_block1_sortcut_conv[0][0]
__________________________________________________________________________________________________
stack_5_block1_sortcut_swish (A (None, 9, 9, 1248)   0           stack_5_block1_sortcut_bn[0][0]  
__________________________________________________________________________________________________
stack_5_block1_MB_dw_ (Depthwis (None, 9, 9, 1248)   11232       stack_5_block1_sortcut_swish[0][0
__________________________________________________________________________________________________
stack_5_block1_MB_dw_bn (BatchN (None, 9, 9, 1248)   4992        stack_5_block1_MB_dw_[0][0]      
__________________________________________________________________________________________________
stack_5_block1_MB_dw_swish (Act (None, 9, 9, 1248)   0           stack_5_block1_MB_dw_bn[0][0]    
__________________________________________________________________________________________________
tf_op_layer_Mean_11 (TensorFlow [(None, 1, 1, 1248)] 0           stack_5_block1_MB_dw_swish[0][0] 
__________________________________________________________________________________________________
stack_5_block1_se_1_conv (Conv2 (None, 1, 1, 52)     64948       tf_op_layer_Mean_11[0][0]        
__________________________________________________________________________________________________
activation_30 (Activation)      (None, 1, 1, 52)     0           stack_5_block1_se_1_conv[0][0]   
__________________________________________________________________________________________________
stack_5_block1_se_2_conv (Conv2 (None, 1, 1, 1248)   66144       activation_30[0][0]              
__________________________________________________________________________________________________
activation_31 (Activation)      (None, 1, 1, 1248)   0           stack_5_block1_se_2_conv[0][0]   
__________________________________________________________________________________________________
multiply_19 (Multiply)          (None, 9, 9, 1248)   0           stack_5_block1_MB_dw_swish[0][0] 
                                                                 activation_31[0][0]              
__________________________________________________________________________________________________
stack_5_block1_MB_pw_conv (Conv (None, 9, 9, 208)    259584      multiply_19[0][0]                
__________________________________________________________________________________________________
stack_5_block1_MB_pw_bn (BatchN (None, 9, 9, 208)    832         stack_5_block1_MB_pw_conv[0][0]  
__________________________________________________________________________________________________
add_25 (Add)                    (None, 9, 9, 208)    0           stack_5_block0_MB_pw_bn[0][0]    
                                                                 stack_5_block1_MB_pw_bn[0][0]    
__________________________________________________________________________________________________
stack_5_block2_sortcut_conv (Co (None, 9, 9, 1248)   259584      add_25[0][0]                     
__________________________________________________________________________________________________
stack_5_block2_sortcut_bn (Batc (None, 9, 9, 1248)   4992        stack_5_block2_sortcut_conv[0][0]
__________________________________________________________________________________________________
stack_5_block2_sortcut_swish (A (None, 9, 9, 1248)   0           stack_5_block2_sortcut_bn[0][0]  
__________________________________________________________________________________________________
stack_5_block2_MB_dw_ (Depthwis (None, 9, 9, 1248)   11232       stack_5_block2_sortcut_swish[0][0
__________________________________________________________________________________________________
stack_5_block2_MB_dw_bn (BatchN (None, 9, 9, 1248)   4992        stack_5_block2_MB_dw_[0][0]      
__________________________________________________________________________________________________
stack_5_block2_MB_dw_swish (Act (None, 9, 9, 1248)   0           stack_5_block2_MB_dw_bn[0][0]    
__________________________________________________________________________________________________
tf_op_layer_Mean_12 (TensorFlow [(None, 1, 1, 1248)] 0           stack_5_block2_MB_dw_swish[0][0] 
__________________________________________________________________________________________________
stack_5_block2_se_1_conv (Conv2 (None, 1, 1, 52)     64948       tf_op_layer_Mean_12[0][0]        
__________________________________________________________________________________________________
activation_32 (Activation)      (None, 1, 1, 52)     0           stack_5_block2_se_1_conv[0][0]   
__________________________________________________________________________________________________
stack_5_block2_se_2_conv (Conv2 (None, 1, 1, 1248)   66144       activation_32[0][0]              
__________________________________________________________________________________________________
activation_33 (Activation)      (None, 1, 1, 1248)   0           stack_5_block2_se_2_conv[0][0]   
__________________________________________________________________________________________________
multiply_20 (Multiply)          (None, 9, 9, 1248)   0           stack_5_block2_MB_dw_swish[0][0] 
                                                                 activation_33[0][0]              
__________________________________________________________________________________________________
stack_5_block2_MB_pw_conv (Conv (None, 9, 9, 208)    259584      multiply_20[0][0]                
__________________________________________________________________________________________________
stack_5_block2_MB_pw_bn (BatchN (None, 9, 9, 208)    832         stack_5_block2_MB_pw_conv[0][0]  
__________________________________________________________________________________________________
add_26 (Add)                    (None, 9, 9, 208)    0           add_25[0][0]                     
                                                                 stack_5_block2_MB_pw_bn[0][0]    
__________________________________________________________________________________________________
stack_5_block3_sortcut_conv (Co (None, 9, 9, 1248)   259584      add_26[0][0]                     
__________________________________________________________________________________________________
stack_5_block3_sortcut_bn (Batc (None, 9, 9, 1248)   4992        stack_5_block3_sortcut_conv[0][0]
__________________________________________________________________________________________________
stack_5_block3_sortcut_swish (A (None, 9, 9, 1248)   0           stack_5_block3_sortcut_bn[0][0]  
__________________________________________________________________________________________________
stack_5_block3_MB_dw_ (Depthwis (None, 9, 9, 1248)   11232       stack_5_block3_sortcut_swish[0][0
__________________________________________________________________________________________________
stack_5_block3_MB_dw_bn (BatchN (None, 9, 9, 1248)   4992        stack_5_block3_MB_dw_[0][0]      
__________________________________________________________________________________________________
stack_5_block3_MB_dw_swish (Act (None, 9, 9, 1248)   0           stack_5_block3_MB_dw_bn[0][0]    
__________________________________________________________________________________________________
tf_op_layer_Mean_13 (TensorFlow [(None, 1, 1, 1248)] 0           stack_5_block3_MB_dw_swish[0][0] 
__________________________________________________________________________________________________
stack_5_block3_se_1_conv (Conv2 (None, 1, 1, 52)     64948       tf_op_layer_Mean_13[0][0]        
__________________________________________________________________________________________________
activation_34 (Activation)      (None, 1, 1, 52)     0           stack_5_block3_se_1_conv[0][0]   
__________________________________________________________________________________________________
stack_5_block3_se_2_conv (Conv2 (None, 1, 1, 1248)   66144       activation_34[0][0]              
__________________________________________________________________________________________________
activation_35 (Activation)      (None, 1, 1, 1248)   0           stack_5_block3_se_2_conv[0][0]   
__________________________________________________________________________________________________
multiply_21 (Multiply)          (None, 9, 9, 1248)   0           stack_5_block3_MB_dw_swish[0][0] 
                                                                 activation_35[0][0]              
__________________________________________________________________________________________________
stack_5_block3_MB_pw_conv (Conv (None, 9, 9, 208)    259584      multiply_21[0][0]                
__________________________________________________________________________________________________
stack_5_block3_MB_pw_bn (BatchN (None, 9, 9, 208)    832         stack_5_block3_MB_pw_conv[0][0]  
__________________________________________________________________________________________________
add_27 (Add)                    (None, 9, 9, 208)    0           add_26[0][0]                     
                                                                 stack_5_block3_MB_pw_bn[0][0]    
__________________________________________________________________________________________________
stack_5_block4_sortcut_conv (Co (None, 9, 9, 1248)   259584      add_27[0][0]                     
__________________________________________________________________________________________________
stack_5_block4_sortcut_bn (Batc (None, 9, 9, 1248)   4992        stack_5_block4_sortcut_conv[0][0]
__________________________________________________________________________________________________
stack_5_block4_sortcut_swish (A (None, 9, 9, 1248)   0           stack_5_block4_sortcut_bn[0][0]  
__________________________________________________________________________________________________
stack_5_block4_MB_dw_ (Depthwis (None, 9, 9, 1248)   11232       stack_5_block4_sortcut_swish[0][0
__________________________________________________________________________________________________
stack_5_block4_MB_dw_bn (BatchN (None, 9, 9, 1248)   4992        stack_5_block4_MB_dw_[0][0]      
__________________________________________________________________________________________________
stack_5_block4_MB_dw_swish (Act (None, 9, 9, 1248)   0           stack_5_block4_MB_dw_bn[0][0]    
__________________________________________________________________________________________________
tf_op_layer_Mean_14 (TensorFlow [(None, 1, 1, 1248)] 0           stack_5_block4_MB_dw_swish[0][0] 
__________________________________________________________________________________________________
stack_5_block4_se_1_conv (Conv2 (None, 1, 1, 52)     64948       tf_op_layer_Mean_14[0][0]        
__________________________________________________________________________________________________
activation_36 (Activation)      (None, 1, 1, 52)     0           stack_5_block4_se_1_conv[0][0]   
__________________________________________________________________________________________________
stack_5_block4_se_2_conv (Conv2 (None, 1, 1, 1248)   66144       activation_36[0][0]              
__________________________________________________________________________________________________
activation_37 (Activation)      (None, 1, 1, 1248)   0           stack_5_block4_se_2_conv[0][0]   
__________________________________________________________________________________________________
multiply_22 (Multiply)          (None, 9, 9, 1248)   0           stack_5_block4_MB_dw_swish[0][0] 
                                                                 activation_37[0][0]              
__________________________________________________________________________________________________
stack_5_block4_MB_pw_conv (Conv (None, 9, 9, 208)    259584      multiply_22[0][0]                
__________________________________________________________________________________________________
stack_5_block4_MB_pw_bn (BatchN (None, 9, 9, 208)    832         stack_5_block4_MB_pw_conv[0][0]  
__________________________________________________________________________________________________
add_28 (Add)                    (None, 9, 9, 208)    0           add_27[0][0]                     
                                                                 stack_5_block4_MB_pw_bn[0][0]    
__________________________________________________________________________________________________
stack_5_block5_sortcut_conv (Co (None, 9, 9, 1248)   259584      add_28[0][0]                     
__________________________________________________________________________________________________
stack_5_block5_sortcut_bn (Batc (None, 9, 9, 1248)   4992        stack_5_block5_sortcut_conv[0][0]
__________________________________________________________________________________________________
stack_5_block5_sortcut_swish (A (None, 9, 9, 1248)   0           stack_5_block5_sortcut_bn[0][0]  
__________________________________________________________________________________________________
stack_5_block5_MB_dw_ (Depthwis (None, 9, 9, 1248)   11232       stack_5_block5_sortcut_swish[0][0
__________________________________________________________________________________________________
stack_5_block5_MB_dw_bn (BatchN (None, 9, 9, 1248)   4992        stack_5_block5_MB_dw_[0][0]      
__________________________________________________________________________________________________
stack_5_block5_MB_dw_swish (Act (None, 9, 9, 1248)   0           stack_5_block5_MB_dw_bn[0][0]    
__________________________________________________________________________________________________
tf_op_layer_Mean_15 (TensorFlow [(None, 1, 1, 1248)] 0           stack_5_block5_MB_dw_swish[0][0] 
__________________________________________________________________________________________________
stack_5_block5_se_1_conv (Conv2 (None, 1, 1, 52)     64948       tf_op_layer_Mean_15[0][0]        
__________________________________________________________________________________________________
activation_38 (Activation)      (None, 1, 1, 52)     0           stack_5_block5_se_1_conv[0][0]   
__________________________________________________________________________________________________
stack_5_block5_se_2_conv (Conv2 (None, 1, 1, 1248)   66144       activation_38[0][0]              
__________________________________________________________________________________________________
activation_39 (Activation)      (None, 1, 1, 1248)   0           stack_5_block5_se_2_conv[0][0]   
__________________________________________________________________________________________________
multiply_23 (Multiply)          (None, 9, 9, 1248)   0           stack_5_block5_MB_dw_swish[0][0] 
                                                                 activation_39[0][0]              
__________________________________________________________________________________________________
stack_5_block5_MB_pw_conv (Conv (None, 9, 9, 208)    259584      multiply_23[0][0]                
__________________________________________________________________________________________________
stack_5_block5_MB_pw_bn (BatchN (None, 9, 9, 208)    832         stack_5_block5_MB_pw_conv[0][0]  
__________________________________________________________________________________________________
add_29 (Add)                    (None, 9, 9, 208)    0           add_28[0][0]                     
                                                                 stack_5_block5_MB_pw_bn[0][0]    
__________________________________________________________________________________________________
stack_5_block6_sortcut_conv (Co (None, 9, 9, 1248)   259584      add_29[0][0]                     
__________________________________________________________________________________________________
stack_5_block6_sortcut_bn (Batc (None, 9, 9, 1248)   4992        stack_5_block6_sortcut_conv[0][0]
__________________________________________________________________________________________________
stack_5_block6_sortcut_swish (A (None, 9, 9, 1248)   0           stack_5_block6_sortcut_bn[0][0]  
__________________________________________________________________________________________________
stack_5_block6_MB_dw_ (Depthwis (None, 9, 9, 1248)   11232       stack_5_block6_sortcut_swish[0][0
__________________________________________________________________________________________________
stack_5_block6_MB_dw_bn (BatchN (None, 9, 9, 1248)   4992        stack_5_block6_MB_dw_[0][0]      
__________________________________________________________________________________________________
stack_5_block6_MB_dw_swish (Act (None, 9, 9, 1248)   0           stack_5_block6_MB_dw_bn[0][0]    
__________________________________________________________________________________________________
tf_op_layer_Mean_16 (TensorFlow [(None, 1, 1, 1248)] 0           stack_5_block6_MB_dw_swish[0][0] 
__________________________________________________________________________________________________
stack_5_block6_se_1_conv (Conv2 (None, 1, 1, 52)     64948       tf_op_layer_Mean_16[0][0]        
__________________________________________________________________________________________________
activation_40 (Activation)      (None, 1, 1, 52)     0           stack_5_block6_se_1_conv[0][0]   
__________________________________________________________________________________________________
stack_5_block6_se_2_conv (Conv2 (None, 1, 1, 1248)   66144       activation_40[0][0]              
__________________________________________________________________________________________________
activation_41 (Activation)      (None, 1, 1, 1248)   0           stack_5_block6_se_2_conv[0][0]   
__________________________________________________________________________________________________
multiply_24 (Multiply)          (None, 9, 9, 1248)   0           stack_5_block6_MB_dw_swish[0][0] 
                                                                 activation_41[0][0]              
__________________________________________________________________________________________________
stack_5_block6_MB_pw_conv (Conv (None, 9, 9, 208)    259584      multiply_24[0][0]                
__________________________________________________________________________________________________
stack_5_block6_MB_pw_bn (BatchN (None, 9, 9, 208)    832         stack_5_block6_MB_pw_conv[0][0]  
__________________________________________________________________________________________________
add_30 (Add)                    (None, 9, 9, 208)    0           add_29[0][0]                     
                                                                 stack_5_block6_MB_pw_bn[0][0]    
__________________________________________________________________________________________________
stack_5_block7_sortcut_conv (Co (None, 9, 9, 1248)   259584      add_30[0][0]                     
__________________________________________________________________________________________________
stack_5_block7_sortcut_bn (Batc (None, 9, 9, 1248)   4992        stack_5_block7_sortcut_conv[0][0]
__________________________________________________________________________________________________
stack_5_block7_sortcut_swish (A (None, 9, 9, 1248)   0           stack_5_block7_sortcut_bn[0][0]  
__________________________________________________________________________________________________
stack_5_block7_MB_dw_ (Depthwis (None, 9, 9, 1248)   11232       stack_5_block7_sortcut_swish[0][0
__________________________________________________________________________________________________
stack_5_block7_MB_dw_bn (BatchN (None, 9, 9, 1248)   4992        stack_5_block7_MB_dw_[0][0]      
__________________________________________________________________________________________________
stack_5_block7_MB_dw_swish (Act (None, 9, 9, 1248)   0           stack_5_block7_MB_dw_bn[0][0]    
__________________________________________________________________________________________________
tf_op_layer_Mean_17 (TensorFlow [(None, 1, 1, 1248)] 0           stack_5_block7_MB_dw_swish[0][0] 
__________________________________________________________________________________________________
stack_5_block7_se_1_conv (Conv2 (None, 1, 1, 52)     64948       tf_op_layer_Mean_17[0][0]        
__________________________________________________________________________________________________
activation_42 (Activation)      (None, 1, 1, 52)     0           stack_5_block7_se_1_conv[0][0]   
__________________________________________________________________________________________________
stack_5_block7_se_2_conv (Conv2 (None, 1, 1, 1248)   66144       activation_42[0][0]              
__________________________________________________________________________________________________
activation_43 (Activation)      (None, 1, 1, 1248)   0           stack_5_block7_se_2_conv[0][0]   
__________________________________________________________________________________________________
multiply_25 (Multiply)          (None, 9, 9, 1248)   0           stack_5_block7_MB_dw_swish[0][0] 
                                                                 activation_43[0][0]              
__________________________________________________________________________________________________
stack_5_block7_MB_pw_conv (Conv (None, 9, 9, 208)    259584      multiply_25[0][0]                
__________________________________________________________________________________________________
stack_5_block7_MB_pw_bn (BatchN (None, 9, 9, 208)    832         stack_5_block7_MB_pw_conv[0][0]  
__________________________________________________________________________________________________
add_31 (Add)                    (None, 9, 9, 208)    0           add_30[0][0]                     
                                                                 stack_5_block7_MB_pw_bn[0][0]    
__________________________________________________________________________________________________
stack_5_block8_sortcut_conv (Co (None, 9, 9, 1248)   259584      add_31[0][0]                     
__________________________________________________________________________________________________
stack_5_block8_sortcut_bn (Batc (None, 9, 9, 1248)   4992        stack_5_block8_sortcut_conv[0][0]
__________________________________________________________________________________________________
stack_5_block8_sortcut_swish (A (None, 9, 9, 1248)   0           stack_5_block8_sortcut_bn[0][0]  
__________________________________________________________________________________________________
stack_5_block8_MB_dw_ (Depthwis (None, 9, 9, 1248)   11232       stack_5_block8_sortcut_swish[0][0
__________________________________________________________________________________________________
stack_5_block8_MB_dw_bn (BatchN (None, 9, 9, 1248)   4992        stack_5_block8_MB_dw_[0][0]      
__________________________________________________________________________________________________
stack_5_block8_MB_dw_swish (Act (None, 9, 9, 1248)   0           stack_5_block8_MB_dw_bn[0][0]    
__________________________________________________________________________________________________
tf_op_layer_Mean_18 (TensorFlow [(None, 1, 1, 1248)] 0           stack_5_block8_MB_dw_swish[0][0] 
__________________________________________________________________________________________________
stack_5_block8_se_1_conv (Conv2 (None, 1, 1, 52)     64948       tf_op_layer_Mean_18[0][0]        
__________________________________________________________________________________________________
activation_44 (Activation)      (None, 1, 1, 52)     0           stack_5_block8_se_1_conv[0][0]   
__________________________________________________________________________________________________
stack_5_block8_se_2_conv (Conv2 (None, 1, 1, 1248)   66144       activation_44[0][0]              
__________________________________________________________________________________________________
activation_45 (Activation)      (None, 1, 1, 1248)   0           stack_5_block8_se_2_conv[0][0]   
__________________________________________________________________________________________________
multiply_26 (Multiply)          (None, 9, 9, 1248)   0           stack_5_block8_MB_dw_swish[0][0] 
                                                                 activation_45[0][0]              
__________________________________________________________________________________________________
stack_5_block8_MB_pw_conv (Conv (None, 9, 9, 208)    259584      multiply_26[0][0]                
__________________________________________________________________________________________________
stack_5_block8_MB_pw_bn (BatchN (None, 9, 9, 208)    832         stack_5_block8_MB_pw_conv[0][0]  
__________________________________________________________________________________________________
add_32 (Add)                    (None, 9, 9, 208)    0           add_31[0][0]                     
                                                                 stack_5_block8_MB_pw_bn[0][0]    
__________________________________________________________________________________________________
stack_5_block9_sortcut_conv (Co (None, 9, 9, 1248)   259584      add_32[0][0]                     
__________________________________________________________________________________________________
stack_5_block9_sortcut_bn (Batc (None, 9, 9, 1248)   4992        stack_5_block9_sortcut_conv[0][0]
__________________________________________________________________________________________________
stack_5_block9_sortcut_swish (A (None, 9, 9, 1248)   0           stack_5_block9_sortcut_bn[0][0]  
__________________________________________________________________________________________________
stack_5_block9_MB_dw_ (Depthwis (None, 9, 9, 1248)   11232       stack_5_block9_sortcut_swish[0][0
__________________________________________________________________________________________________
stack_5_block9_MB_dw_bn (BatchN (None, 9, 9, 1248)   4992        stack_5_block9_MB_dw_[0][0]      
__________________________________________________________________________________________________
stack_5_block9_MB_dw_swish (Act (None, 9, 9, 1248)   0           stack_5_block9_MB_dw_bn[0][0]    
__________________________________________________________________________________________________
tf_op_layer_Mean_19 (TensorFlow [(None, 1, 1, 1248)] 0           stack_5_block9_MB_dw_swish[0][0] 
__________________________________________________________________________________________________
stack_5_block9_se_1_conv (Conv2 (None, 1, 1, 52)     64948       tf_op_layer_Mean_19[0][0]        
__________________________________________________________________________________________________
activation_46 (Activation)      (None, 1, 1, 52)     0           stack_5_block9_se_1_conv[0][0]   
__________________________________________________________________________________________________
stack_5_block9_se_2_conv (Conv2 (None, 1, 1, 1248)   66144       activation_46[0][0]              
__________________________________________________________________________________________________
activation_47 (Activation)      (None, 1, 1, 1248)   0           stack_5_block9_se_2_conv[0][0]   
__________________________________________________________________________________________________
multiply_27 (Multiply)          (None, 9, 9, 1248)   0           stack_5_block9_MB_dw_swish[0][0] 
                                                                 activation_47[0][0]              
__________________________________________________________________________________________________
stack_5_block9_MB_pw_conv (Conv (None, 9, 9, 208)    259584      multiply_27[0][0]                
__________________________________________________________________________________________________
stack_5_block9_MB_pw_bn (BatchN (None, 9, 9, 208)    832         stack_5_block9_MB_pw_conv[0][0]  
__________________________________________________________________________________________________
add_33 (Add)                    (None, 9, 9, 208)    0           add_32[0][0]                     
                                                                 stack_5_block9_MB_pw_bn[0][0]    
__________________________________________________________________________________________________
post_conv (Conv2D)              (None, 9, 9, 1408)   292864      add_33[0][0]                     
__________________________________________________________________________________________________
post_bn (BatchNormalization)    (None, 9, 9, 1408)   5632        post_conv[0][0]                  
__________________________________________________________________________________________________
post_swish (Activation)         (None, 9, 9, 1408)   0           post_bn[0][0]                    
__________________________________________________________________________________________________
lambda_layer_1 (LambdaLayer)    (None, 9, 9, 1408)   2984256     post_swish[0][0]                 
__________________________________________________________________________________________________
global_average_pooling2d_10 (Gl (None, 1408)         0           lambda_layer_1[0][0]             
==================================================================================================
Total params: 11,753,630
Trainable params: 11,667,822
Non-trainable params: 85,808
__________________________________________________________________________________________________
pass valid
pass valid
pass valid
pass valid
pass valid
pass valid
pass valid
…
