…
use_se in Tensor("stack_5_block9_MB_dw_swish/IdentityN:0", shape=(None, 9, 9, 1248), dtype=float32)
use_se out Tensor("multiply_19/mul:0", shape=(None, 9, 9, 1248), dtype=float32)
mb (None, 9, 9, 208) (None, 9, 9, 208)
>>>> No pretrained available, model will be randomly initialized
Model: "functional_1"
__________________________________________________________________________________________________
Layer (type)                    Output Shape         Param #     Connected to                     
==================================================================================================
input_2 (InputLayer)            [(None, 260, 260, 3) 0                                            
__________________________________________________________________________________________________
stem_conv (Conv2D)              (None, 130, 130, 32) 864         input_2[0][0]                    
__________________________________________________________________________________________________
stem_bn (BatchNormalization)    (None, 130, 130, 32) 128         stem_conv[0][0]                  
__________________________________________________________________________________________________
stem_swish (Activation)         (None, 130, 130, 32) 0           stem_bn[0][0]                    
__________________________________________________________________________________________________
stack_0_block0_fu_conv (Conv2D) (None, 130, 130, 16) 4608        stem_swish[0][0]                 
__________________________________________________________________________________________________
stack_0_block0_fu_bn (BatchNorm (None, 130, 130, 16) 64          stack_0_block0_fu_conv[0][0]     
__________________________________________________________________________________________________
stack_0_block0_fu_swish (Activa (None, 130, 130, 16) 0           stack_0_block0_fu_bn[0][0]       
__________________________________________________________________________________________________
stack_0_block1_fu_conv (Conv2D) (None, 130, 130, 16) 2304        stack_0_block0_fu_swish[0][0]    
__________________________________________________________________________________________________
stack_0_block1_fu_bn (BatchNorm (None, 130, 130, 16) 64          stack_0_block1_fu_conv[0][0]     
__________________________________________________________________________________________________
stack_0_block1_fu_swish (Activa (None, 130, 130, 16) 0           stack_0_block1_fu_bn[0][0]       
__________________________________________________________________________________________________
add (Add)                       (None, 130, 130, 16) 0           stack_0_block0_fu_swish[0][0]    
                                                                 stack_0_block1_fu_swish[0][0]    
__________________________________________________________________________________________________
stack_1_block0_sortcut_conv (Co (None, 65, 65, 64)   9216        add[0][0]                        
__________________________________________________________________________________________________
stack_1_block0_sortcut_bn (Batc (None, 65, 65, 64)   256         stack_1_block0_sortcut_conv[0][0]
__________________________________________________________________________________________________
stack_1_block0_sortcut_swish (A (None, 65, 65, 64)   0           stack_1_block0_sortcut_bn[0][0]  
__________________________________________________________________________________________________
stack_1_block0_MB_pw_conv (Conv (None, 65, 65, 32)   2048        stack_1_block0_sortcut_swish[0][0
__________________________________________________________________________________________________
stack_1_block0_MB_pw_bn (BatchN (None, 65, 65, 32)   128         stack_1_block0_MB_pw_conv[0][0]  
__________________________________________________________________________________________________
stack_1_block1_sortcut_conv (Co (None, 65, 65, 128)  36864       stack_1_block0_MB_pw_bn[0][0]    
__________________________________________________________________________________________________
stack_1_block1_sortcut_bn (Batc (None, 65, 65, 128)  512         stack_1_block1_sortcut_conv[0][0]
__________________________________________________________________________________________________
stack_1_block1_sortcut_swish (A (None, 65, 65, 128)  0           stack_1_block1_sortcut_bn[0][0]  
__________________________________________________________________________________________________
stack_1_block1_MB_pw_conv (Conv (None, 65, 65, 32)   4096        stack_1_block1_sortcut_swish[0][0
__________________________________________________________________________________________________
stack_1_block1_MB_pw_bn (BatchN (None, 65, 65, 32)   128         stack_1_block1_MB_pw_conv[0][0]  
__________________________________________________________________________________________________
add_1 (Add)                     (None, 65, 65, 32)   0           stack_1_block0_MB_pw_bn[0][0]    
                                                                 stack_1_block1_MB_pw_bn[0][0]    
__________________________________________________________________________________________________
stack_1_block2_sortcut_conv (Co (None, 65, 65, 128)  36864       add_1[0][0]                      
__________________________________________________________________________________________________
stack_1_block2_sortcut_bn (Batc (None, 65, 65, 128)  512         stack_1_block2_sortcut_conv[0][0]
__________________________________________________________________________________________________
stack_1_block2_sortcut_swish (A (None, 65, 65, 128)  0           stack_1_block2_sortcut_bn[0][0]  
__________________________________________________________________________________________________
stack_1_block2_MB_pw_conv (Conv (None, 65, 65, 32)   4096        stack_1_block2_sortcut_swish[0][0
__________________________________________________________________________________________________
stack_1_block2_MB_pw_bn (BatchN (None, 65, 65, 32)   128         stack_1_block2_MB_pw_conv[0][0]  
__________________________________________________________________________________________________
add_2 (Add)                     (None, 65, 65, 32)   0           add_1[0][0]                      
                                                                 stack_1_block2_MB_pw_bn[0][0]    
__________________________________________________________________________________________________
stack_2_block0_sortcut_conv (Co (None, 33, 33, 128)  36864       add_2[0][0]                      
__________________________________________________________________________________________________
stack_2_block0_sortcut_bn (Batc (None, 33, 33, 128)  512         stack_2_block0_sortcut_conv[0][0]
__________________________________________________________________________________________________
stack_2_block0_sortcut_swish (A (None, 33, 33, 128)  0           stack_2_block0_sortcut_bn[0][0]  
__________________________________________________________________________________________________
stack_2_block0_MB_pw_conv (Conv (None, 33, 33, 56)   7168        stack_2_block0_sortcut_swish[0][0
__________________________________________________________________________________________________
stack_2_block0_MB_pw_bn (BatchN (None, 33, 33, 56)   224         stack_2_block0_MB_pw_conv[0][0]  
__________________________________________________________________________________________________
stack_2_block1_sortcut_conv (Co (None, 33, 33, 224)  112896      stack_2_block0_MB_pw_bn[0][0]    
__________________________________________________________________________________________________
stack_2_block1_sortcut_bn (Batc (None, 33, 33, 224)  896         stack_2_block1_sortcut_conv[0][0]
__________________________________________________________________________________________________
stack_2_block1_sortcut_swish (A (None, 33, 33, 224)  0           stack_2_block1_sortcut_bn[0][0]  
__________________________________________________________________________________________________
stack_2_block1_MB_pw_conv (Conv (None, 33, 33, 56)   12544       stack_2_block1_sortcut_swish[0][0
__________________________________________________________________________________________________
stack_2_block1_MB_pw_bn (BatchN (None, 33, 33, 56)   224         stack_2_block1_MB_pw_conv[0][0]  
__________________________________________________________________________________________________
add_3 (Add)                     (None, 33, 33, 56)   0           stack_2_block0_MB_pw_bn[0][0]    
                                                                 stack_2_block1_MB_pw_bn[0][0]    
__________________________________________________________________________________________________
stack_2_block2_sortcut_conv (Co (None, 33, 33, 224)  112896      add_3[0][0]                      
__________________________________________________________________________________________________
stack_2_block2_sortcut_bn (Batc (None, 33, 33, 224)  896         stack_2_block2_sortcut_conv[0][0]
__________________________________________________________________________________________________
stack_2_block2_sortcut_swish (A (None, 33, 33, 224)  0           stack_2_block2_sortcut_bn[0][0]  
__________________________________________________________________________________________________
stack_2_block2_MB_pw_conv (Conv (None, 33, 33, 56)   12544       stack_2_block2_sortcut_swish[0][0
__________________________________________________________________________________________________
stack_2_block2_MB_pw_bn (BatchN (None, 33, 33, 56)   224         stack_2_block2_MB_pw_conv[0][0]  
__________________________________________________________________________________________________
add_4 (Add)                     (None, 33, 33, 56)   0           add_3[0][0]                      
                                                                 stack_2_block2_MB_pw_bn[0][0]    
__________________________________________________________________________________________________
stack_3_block0_sortcut_conv (Co (None, 33, 33, 224)  12544       add_4[0][0]                      
__________________________________________________________________________________________________
stack_3_block0_sortcut_bn (Batc (None, 33, 33, 224)  896         stack_3_block0_sortcut_conv[0][0]
__________________________________________________________________________________________________
stack_3_block0_sortcut_swish (A (None, 33, 33, 224)  0           stack_3_block0_sortcut_bn[0][0]  
__________________________________________________________________________________________________
stack_3_block0_MB_dw_ (Depthwis (None, 17, 17, 224)  2016        stack_3_block0_sortcut_swish[0][0
__________________________________________________________________________________________________
stack_3_block0_MB_dw_bn (BatchN (None, 17, 17, 224)  896         stack_3_block0_MB_dw_[0][0]      
__________________________________________________________________________________________________
stack_3_block0_MB_dw_swish (Act (None, 17, 17, 224)  0           stack_3_block0_MB_dw_bn[0][0]    
__________________________________________________________________________________________________
tf_op_layer_Mean (TensorFlowOpL [(None, 1, 1, 224)]  0           stack_3_block0_MB_dw_swish[0][0] 
__________________________________________________________________________________________________
stack_3_block0_se_1_conv (Conv2 (None, 1, 1, 14)     3150        tf_op_layer_Mean[0][0]           
__________________________________________________________________________________________________
activation (Activation)         (None, 1, 1, 14)     0           stack_3_block0_se_1_conv[0][0]   
__________________________________________________________________________________________________
stack_3_block0_se_2_conv (Conv2 (None, 1, 1, 224)    3360        activation[0][0]                 
__________________________________________________________________________________________________
activation_1 (Activation)       (None, 1, 1, 224)    0           stack_3_block0_se_2_conv[0][0]   
__________________________________________________________________________________________________
multiply (Multiply)             (None, 17, 17, 224)  0           stack_3_block0_MB_dw_swish[0][0] 
                                                                 activation_1[0][0]               
__________________________________________________________________________________________________
stack_3_block0_MB_pw_conv (Conv (None, 17, 17, 104)  23296       multiply[0][0]                   
__________________________________________________________________________________________________
stack_3_block0_MB_pw_bn (BatchN (None, 17, 17, 104)  416         stack_3_block0_MB_pw_conv[0][0]  
__________________________________________________________________________________________________
stack_3_block1_sortcut_conv (Co (None, 17, 17, 416)  43264       stack_3_block0_MB_pw_bn[0][0]    
__________________________________________________________________________________________________
stack_3_block1_sortcut_bn (Batc (None, 17, 17, 416)  1664        stack_3_block1_sortcut_conv[0][0]
__________________________________________________________________________________________________
stack_3_block1_sortcut_swish (A (None, 17, 17, 416)  0           stack_3_block1_sortcut_bn[0][0]  
__________________________________________________________________________________________________
stack_3_block1_MB_dw_ (Depthwis (None, 17, 17, 416)  3744        stack_3_block1_sortcut_swish[0][0
__________________________________________________________________________________________________
stack_3_block1_MB_dw_bn (BatchN (None, 17, 17, 416)  1664        stack_3_block1_MB_dw_[0][0]      
__________________________________________________________________________________________________
stack_3_block1_MB_dw_swish (Act (None, 17, 17, 416)  0           stack_3_block1_MB_dw_bn[0][0]    
__________________________________________________________________________________________________
tf_op_layer_Mean_1 (TensorFlowO [(None, 1, 1, 416)]  0           stack_3_block1_MB_dw_swish[0][0] 
__________________________________________________________________________________________________
stack_3_block1_se_1_conv (Conv2 (None, 1, 1, 26)     10842       tf_op_layer_Mean_1[0][0]         
__________________________________________________________________________________________________
activation_2 (Activation)       (None, 1, 1, 26)     0           stack_3_block1_se_1_conv[0][0]   
__________________________________________________________________________________________________
stack_3_block1_se_2_conv (Conv2 (None, 1, 1, 416)    11232       activation_2[0][0]               
__________________________________________________________________________________________________
activation_3 (Activation)       (None, 1, 1, 416)    0           stack_3_block1_se_2_conv[0][0]   
__________________________________________________________________________________________________
multiply_1 (Multiply)           (None, 17, 17, 416)  0           stack_3_block1_MB_dw_swish[0][0] 
                                                                 activation_3[0][0]               
__________________________________________________________________________________________________
stack_3_block1_MB_pw_conv (Conv (None, 17, 17, 104)  43264       multiply_1[0][0]                 
__________________________________________________________________________________________________
stack_3_block1_MB_pw_bn (BatchN (None, 17, 17, 104)  416         stack_3_block1_MB_pw_conv[0][0]  
__________________________________________________________________________________________________
add_5 (Add)                     (None, 17, 17, 104)  0           stack_3_block0_MB_pw_bn[0][0]    
                                                                 stack_3_block1_MB_pw_bn[0][0]    
__________________________________________________________________________________________________
stack_3_block2_sortcut_conv (Co (None, 17, 17, 416)  43264       add_5[0][0]                      
__________________________________________________________________________________________________
stack_3_block2_sortcut_bn (Batc (None, 17, 17, 416)  1664        stack_3_block2_sortcut_conv[0][0]
__________________________________________________________________________________________________
stack_3_block2_sortcut_swish (A (None, 17, 17, 416)  0           stack_3_block2_sortcut_bn[0][0]  
__________________________________________________________________________________________________
stack_3_block2_MB_dw_ (Depthwis (None, 17, 17, 416)  3744        stack_3_block2_sortcut_swish[0][0
__________________________________________________________________________________________________
stack_3_block2_MB_dw_bn (BatchN (None, 17, 17, 416)  1664        stack_3_block2_MB_dw_[0][0]      
__________________________________________________________________________________________________
stack_3_block2_MB_dw_swish (Act (None, 17, 17, 416)  0           stack_3_block2_MB_dw_bn[0][0]    
__________________________________________________________________________________________________
tf_op_layer_Mean_2 (TensorFlowO [(None, 1, 1, 416)]  0           stack_3_block2_MB_dw_swish[0][0] 
__________________________________________________________________________________________________
stack_3_block2_se_1_conv (Conv2 (None, 1, 1, 26)     10842       tf_op_layer_Mean_2[0][0]         
__________________________________________________________________________________________________
activation_4 (Activation)       (None, 1, 1, 26)     0           stack_3_block2_se_1_conv[0][0]   
__________________________________________________________________________________________________
stack_3_block2_se_2_conv (Conv2 (None, 1, 1, 416)    11232       activation_4[0][0]               
__________________________________________________________________________________________________
activation_5 (Activation)       (None, 1, 1, 416)    0           stack_3_block2_se_2_conv[0][0]   
__________________________________________________________________________________________________
multiply_2 (Multiply)           (None, 17, 17, 416)  0           stack_3_block2_MB_dw_swish[0][0] 
                                                                 activation_5[0][0]               
__________________________________________________________________________________________________
stack_3_block2_MB_pw_conv (Conv (None, 17, 17, 104)  43264       multiply_2[0][0]                 
__________________________________________________________________________________________________
stack_3_block2_MB_pw_bn (BatchN (None, 17, 17, 104)  416         stack_3_block2_MB_pw_conv[0][0]  
__________________________________________________________________________________________________
add_6 (Add)                     (None, 17, 17, 104)  0           add_5[0][0]                      
                                                                 stack_3_block2_MB_pw_bn[0][0]    
__________________________________________________________________________________________________
stack_3_block3_sortcut_conv (Co (None, 17, 17, 416)  43264       add_6[0][0]                      
__________________________________________________________________________________________________
stack_3_block3_sortcut_bn (Batc (None, 17, 17, 416)  1664        stack_3_block3_sortcut_conv[0][0]
__________________________________________________________________________________________________
stack_3_block3_sortcut_swish (A (None, 17, 17, 416)  0           stack_3_block3_sortcut_bn[0][0]  
__________________________________________________________________________________________________
stack_3_block3_MB_dw_ (Depthwis (None, 17, 17, 416)  3744        stack_3_block3_sortcut_swish[0][0
__________________________________________________________________________________________________
stack_3_block3_MB_dw_bn (BatchN (None, 17, 17, 416)  1664        stack_3_block3_MB_dw_[0][0]      
__________________________________________________________________________________________________
stack_3_block3_MB_dw_swish (Act (None, 17, 17, 416)  0           stack_3_block3_MB_dw_bn[0][0]    
__________________________________________________________________________________________________
tf_op_layer_Mean_3 (TensorFlowO [(None, 1, 1, 416)]  0           stack_3_block3_MB_dw_swish[0][0] 
__________________________________________________________________________________________________
stack_3_block3_se_1_conv (Conv2 (None, 1, 1, 26)     10842       tf_op_layer_Mean_3[0][0]         
__________________________________________________________________________________________________
activation_6 (Activation)       (None, 1, 1, 26)     0           stack_3_block3_se_1_conv[0][0]   
__________________________________________________________________________________________________
stack_3_block3_se_2_conv (Conv2 (None, 1, 1, 416)    11232       activation_6[0][0]               
__________________________________________________________________________________________________
activation_7 (Activation)       (None, 1, 1, 416)    0           stack_3_block3_se_2_conv[0][0]   
__________________________________________________________________________________________________
multiply_3 (Multiply)           (None, 17, 17, 416)  0           stack_3_block3_MB_dw_swish[0][0] 
                                                                 activation_7[0][0]               
__________________________________________________________________________________________________
stack_3_block3_MB_pw_conv (Conv (None, 17, 17, 104)  43264       multiply_3[0][0]                 
__________________________________________________________________________________________________
stack_3_block3_MB_pw_bn (BatchN (None, 17, 17, 104)  416         stack_3_block3_MB_pw_conv[0][0]  
__________________________________________________________________________________________________
add_7 (Add)                     (None, 17, 17, 104)  0           add_6[0][0]                      
                                                                 stack_3_block3_MB_pw_bn[0][0]    
__________________________________________________________________________________________________
stack_4_block0_sortcut_conv (Co (None, 17, 17, 624)  64896       add_7[0][0]                      
__________________________________________________________________________________________________
stack_4_block0_sortcut_bn (Batc (None, 17, 17, 624)  2496        stack_4_block0_sortcut_conv[0][0]
__________________________________________________________________________________________________
stack_4_block0_sortcut_swish (A (None, 17, 17, 624)  0           stack_4_block0_sortcut_bn[0][0]  
__________________________________________________________________________________________________
stack_4_block0_MB_dw_ (Depthwis (None, 17, 17, 624)  5616        stack_4_block0_sortcut_swish[0][0
__________________________________________________________________________________________________
stack_4_block0_MB_dw_bn (BatchN (None, 17, 17, 624)  2496        stack_4_block0_MB_dw_[0][0]      
__________________________________________________________________________________________________
stack_4_block0_MB_dw_swish (Act (None, 17, 17, 624)  0           stack_4_block0_MB_dw_bn[0][0]    
__________________________________________________________________________________________________
tf_op_layer_Mean_4 (TensorFlowO [(None, 1, 1, 624)]  0           stack_4_block0_MB_dw_swish[0][0] 
__________________________________________________________________________________________________
stack_4_block0_se_1_conv (Conv2 (None, 1, 1, 26)     16250       tf_op_layer_Mean_4[0][0]         
__________________________________________________________________________________________________
activation_8 (Activation)       (None, 1, 1, 26)     0           stack_4_block0_se_1_conv[0][0]   
__________________________________________________________________________________________________
stack_4_block0_se_2_conv (Conv2 (None, 1, 1, 624)    16848       activation_8[0][0]               
__________________________________________________________________________________________________
activation_9 (Activation)       (None, 1, 1, 624)    0           stack_4_block0_se_2_conv[0][0]   
__________________________________________________________________________________________________
multiply_4 (Multiply)           (None, 17, 17, 624)  0           stack_4_block0_MB_dw_swish[0][0] 
                                                                 activation_9[0][0]               
__________________________________________________________________________________________________
stack_4_block0_MB_pw_conv (Conv (None, 17, 17, 120)  74880       multiply_4[0][0]                 
__________________________________________________________________________________________________
stack_4_block0_MB_pw_bn (BatchN (None, 17, 17, 120)  480         stack_4_block0_MB_pw_conv[0][0]  
__________________________________________________________________________________________________
stack_4_block1_sortcut_conv (Co (None, 17, 17, 720)  86400       stack_4_block0_MB_pw_bn[0][0]    
__________________________________________________________________________________________________
stack_4_block1_sortcut_bn (Batc (None, 17, 17, 720)  2880        stack_4_block1_sortcut_conv[0][0]
__________________________________________________________________________________________________
stack_4_block1_sortcut_swish (A (None, 17, 17, 720)  0           stack_4_block1_sortcut_bn[0][0]  
__________________________________________________________________________________________________
stack_4_block1_MB_dw_ (Depthwis (None, 17, 17, 720)  6480        stack_4_block1_sortcut_swish[0][0
__________________________________________________________________________________________________
stack_4_block1_MB_dw_bn (BatchN (None, 17, 17, 720)  2880        stack_4_block1_MB_dw_[0][0]      
__________________________________________________________________________________________________
stack_4_block1_MB_dw_swish (Act (None, 17, 17, 720)  0           stack_4_block1_MB_dw_bn[0][0]    
__________________________________________________________________________________________________
tf_op_layer_Mean_5 (TensorFlowO [(None, 1, 1, 720)]  0           stack_4_block1_MB_dw_swish[0][0] 
__________________________________________________________________________________________________
stack_4_block1_se_1_conv (Conv2 (None, 1, 1, 30)     21630       tf_op_layer_Mean_5[0][0]         
__________________________________________________________________________________________________
activation_10 (Activation)      (None, 1, 1, 30)     0           stack_4_block1_se_1_conv[0][0]   
__________________________________________________________________________________________________
stack_4_block1_se_2_conv (Conv2 (None, 1, 1, 720)    22320       activation_10[0][0]              
__________________________________________________________________________________________________
activation_11 (Activation)      (None, 1, 1, 720)    0           stack_4_block1_se_2_conv[0][0]   
__________________________________________________________________________________________________
multiply_5 (Multiply)           (None, 17, 17, 720)  0           stack_4_block1_MB_dw_swish[0][0] 
                                                                 activation_11[0][0]              
__________________________________________________________________________________________________
stack_4_block1_MB_pw_conv (Conv (None, 17, 17, 120)  86400       multiply_5[0][0]                 
__________________________________________________________________________________________________
stack_4_block1_MB_pw_bn (BatchN (None, 17, 17, 120)  480         stack_4_block1_MB_pw_conv[0][0]  
__________________________________________________________________________________________________
add_8 (Add)                     (None, 17, 17, 120)  0           stack_4_block0_MB_pw_bn[0][0]    
                                                                 stack_4_block1_MB_pw_bn[0][0]    
__________________________________________________________________________________________________
stack_4_block2_sortcut_conv (Co (None, 17, 17, 720)  86400       add_8[0][0]                      
__________________________________________________________________________________________________
stack_4_block2_sortcut_bn (Batc (None, 17, 17, 720)  2880        stack_4_block2_sortcut_conv[0][0]
__________________________________________________________________________________________________
stack_4_block2_sortcut_swish (A (None, 17, 17, 720)  0           stack_4_block2_sortcut_bn[0][0]  
__________________________________________________________________________________________________
stack_4_block2_MB_dw_ (Depthwis (None, 17, 17, 720)  6480        stack_4_block2_sortcut_swish[0][0
__________________________________________________________________________________________________
stack_4_block2_MB_dw_bn (BatchN (None, 17, 17, 720)  2880        stack_4_block2_MB_dw_[0][0]      
__________________________________________________________________________________________________
stack_4_block2_MB_dw_swish (Act (None, 17, 17, 720)  0           stack_4_block2_MB_dw_bn[0][0]    
__________________________________________________________________________________________________
tf_op_layer_Mean_6 (TensorFlowO [(None, 1, 1, 720)]  0           stack_4_block2_MB_dw_swish[0][0] 
__________________________________________________________________________________________________
stack_4_block2_se_1_conv (Conv2 (None, 1, 1, 30)     21630       tf_op_layer_Mean_6[0][0]         
__________________________________________________________________________________________________
activation_12 (Activation)      (None, 1, 1, 30)     0           stack_4_block2_se_1_conv[0][0]   
__________________________________________________________________________________________________
stack_4_block2_se_2_conv (Conv2 (None, 1, 1, 720)    22320       activation_12[0][0]              
__________________________________________________________________________________________________
activation_13 (Activation)      (None, 1, 1, 720)    0           stack_4_block2_se_2_conv[0][0]   
__________________________________________________________________________________________________
multiply_6 (Multiply)           (None, 17, 17, 720)  0           stack_4_block2_MB_dw_swish[0][0] 
                                                                 activation_13[0][0]              
__________________________________________________________________________________________________
stack_4_block2_MB_pw_conv (Conv (None, 17, 17, 120)  86400       multiply_6[0][0]                 
__________________________________________________________________________________________________
stack_4_block2_MB_pw_bn (BatchN (None, 17, 17, 120)  480         stack_4_block2_MB_pw_conv[0][0]  
__________________________________________________________________________________________________
add_9 (Add)                     (None, 17, 17, 120)  0           add_8[0][0]                      
                                                                 stack_4_block2_MB_pw_bn[0][0]    
__________________________________________________________________________________________________
stack_4_block3_sortcut_conv (Co (None, 17, 17, 720)  86400       add_9[0][0]                      
__________________________________________________________________________________________________
stack_4_block3_sortcut_bn (Batc (None, 17, 17, 720)  2880        stack_4_block3_sortcut_conv[0][0]
__________________________________________________________________________________________________
stack_4_block3_sortcut_swish (A (None, 17, 17, 720)  0           stack_4_block3_sortcut_bn[0][0]  
__________________________________________________________________________________________________
stack_4_block3_MB_dw_ (Depthwis (None, 17, 17, 720)  6480        stack_4_block3_sortcut_swish[0][0
__________________________________________________________________________________________________
stack_4_block3_MB_dw_bn (BatchN (None, 17, 17, 720)  2880        stack_4_block3_MB_dw_[0][0]      
__________________________________________________________________________________________________
stack_4_block3_MB_dw_swish (Act (None, 17, 17, 720)  0           stack_4_block3_MB_dw_bn[0][0]    
__________________________________________________________________________________________________
tf_op_layer_Mean_7 (TensorFlowO [(None, 1, 1, 720)]  0           stack_4_block3_MB_dw_swish[0][0] 
__________________________________________________________________________________________________
stack_4_block3_se_1_conv (Conv2 (None, 1, 1, 30)     21630       tf_op_layer_Mean_7[0][0]         
__________________________________________________________________________________________________
activation_14 (Activation)      (None, 1, 1, 30)     0           stack_4_block3_se_1_conv[0][0]   
__________________________________________________________________________________________________
stack_4_block3_se_2_conv (Conv2 (None, 1, 1, 720)    22320       activation_14[0][0]              
__________________________________________________________________________________________________
activation_15 (Activation)      (None, 1, 1, 720)    0           stack_4_block3_se_2_conv[0][0]   
__________________________________________________________________________________________________
multiply_7 (Multiply)           (None, 17, 17, 720)  0           stack_4_block3_MB_dw_swish[0][0] 
                                                                 activation_15[0][0]              
__________________________________________________________________________________________________
stack_4_block3_MB_pw_conv (Conv (None, 17, 17, 120)  86400       multiply_7[0][0]                 
__________________________________________________________________________________________________
stack_4_block3_MB_pw_bn (BatchN (None, 17, 17, 120)  480         stack_4_block3_MB_pw_conv[0][0]  
__________________________________________________________________________________________________
add_10 (Add)                    (None, 17, 17, 120)  0           add_9[0][0]                      
                                                                 stack_4_block3_MB_pw_bn[0][0]    
__________________________________________________________________________________________________
stack_4_block4_sortcut_conv (Co (None, 17, 17, 720)  86400       add_10[0][0]                     
__________________________________________________________________________________________________
stack_4_block4_sortcut_bn (Batc (None, 17, 17, 720)  2880        stack_4_block4_sortcut_conv[0][0]
__________________________________________________________________________________________________
stack_4_block4_sortcut_swish (A (None, 17, 17, 720)  0           stack_4_block4_sortcut_bn[0][0]  
__________________________________________________________________________________________________
stack_4_block4_MB_dw_ (Depthwis (None, 17, 17, 720)  6480        stack_4_block4_sortcut_swish[0][0
__________________________________________________________________________________________________
stack_4_block4_MB_dw_bn (BatchN (None, 17, 17, 720)  2880        stack_4_block4_MB_dw_[0][0]      
__________________________________________________________________________________________________
stack_4_block4_MB_dw_swish (Act (None, 17, 17, 720)  0           stack_4_block4_MB_dw_bn[0][0]    
__________________________________________________________________________________________________
tf_op_layer_Mean_8 (TensorFlowO [(None, 1, 1, 720)]  0           stack_4_block4_MB_dw_swish[0][0] 
__________________________________________________________________________________________________
stack_4_block4_se_1_conv (Conv2 (None, 1, 1, 30)     21630       tf_op_layer_Mean_8[0][0]         
__________________________________________________________________________________________________
activation_16 (Activation)      (None, 1, 1, 30)     0           stack_4_block4_se_1_conv[0][0]   
__________________________________________________________________________________________________
stack_4_block4_se_2_conv (Conv2 (None, 1, 1, 720)    22320       activation_16[0][0]              
__________________________________________________________________________________________________
activation_17 (Activation)      (None, 1, 1, 720)    0           stack_4_block4_se_2_conv[0][0]   
__________________________________________________________________________________________________
multiply_8 (Multiply)           (None, 17, 17, 720)  0           stack_4_block4_MB_dw_swish[0][0] 
                                                                 activation_17[0][0]              
__________________________________________________________________________________________________
stack_4_block4_MB_pw_conv (Conv (None, 17, 17, 120)  86400       multiply_8[0][0]                 
__________________________________________________________________________________________________
stack_4_block4_MB_pw_bn (BatchN (None, 17, 17, 120)  480         stack_4_block4_MB_pw_conv[0][0]  
__________________________________________________________________________________________________
add_11 (Add)                    (None, 17, 17, 120)  0           add_10[0][0]                     
                                                                 stack_4_block4_MB_pw_bn[0][0]    
__________________________________________________________________________________________________
stack_4_block5_sortcut_conv (Co (None, 17, 17, 720)  86400       add_11[0][0]                     
__________________________________________________________________________________________________
stack_4_block5_sortcut_bn (Batc (None, 17, 17, 720)  2880        stack_4_block5_sortcut_conv[0][0]
__________________________________________________________________________________________________
stack_4_block5_sortcut_swish (A (None, 17, 17, 720)  0           stack_4_block5_sortcut_bn[0][0]  
__________________________________________________________________________________________________
stack_4_block5_MB_dw_ (Depthwis (None, 17, 17, 720)  6480        stack_4_block5_sortcut_swish[0][0
__________________________________________________________________________________________________
stack_4_block5_MB_dw_bn (BatchN (None, 17, 17, 720)  2880        stack_4_block5_MB_dw_[0][0]      
__________________________________________________________________________________________________
stack_4_block5_MB_dw_swish (Act (None, 17, 17, 720)  0           stack_4_block5_MB_dw_bn[0][0]    
__________________________________________________________________________________________________
tf_op_layer_Mean_9 (TensorFlowO [(None, 1, 1, 720)]  0           stack_4_block5_MB_dw_swish[0][0] 
__________________________________________________________________________________________________
stack_4_block5_se_1_conv (Conv2 (None, 1, 1, 30)     21630       tf_op_layer_Mean_9[0][0]         
__________________________________________________________________________________________________
activation_18 (Activation)      (None, 1, 1, 30)     0           stack_4_block5_se_1_conv[0][0]   
__________________________________________________________________________________________________
stack_4_block5_se_2_conv (Conv2 (None, 1, 1, 720)    22320       activation_18[0][0]              
__________________________________________________________________________________________________
activation_19 (Activation)      (None, 1, 1, 720)    0           stack_4_block5_se_2_conv[0][0]   
__________________________________________________________________________________________________
multiply_9 (Multiply)           (None, 17, 17, 720)  0           stack_4_block5_MB_dw_swish[0][0] 
                                                                 activation_19[0][0]              
__________________________________________________________________________________________________
stack_4_block5_MB_pw_conv (Conv (None, 17, 17, 120)  86400       multiply_9[0][0]                 
__________________________________________________________________________________________________
stack_4_block5_MB_pw_bn (BatchN (None, 17, 17, 120)  480         stack_4_block5_MB_pw_conv[0][0]  
__________________________________________________________________________________________________
add_12 (Add)                    (None, 17, 17, 120)  0           add_11[0][0]                     
                                                                 stack_4_block5_MB_pw_bn[0][0]    
__________________________________________________________________________________________________
stack_5_block0_sortcut_conv (Co (None, 17, 17, 720)  86400       add_12[0][0]                     
__________________________________________________________________________________________________
stack_5_block0_sortcut_bn (Batc (None, 17, 17, 720)  2880        stack_5_block0_sortcut_conv[0][0]
__________________________________________________________________________________________________
stack_5_block0_sortcut_swish (A (None, 17, 17, 720)  0           stack_5_block0_sortcut_bn[0][0]  
__________________________________________________________________________________________________
stack_5_block0_MB_dw_ (Depthwis (None, 9, 9, 720)    6480        stack_5_block0_sortcut_swish[0][0
__________________________________________________________________________________________________
stack_5_block0_MB_dw_bn (BatchN (None, 9, 9, 720)    2880        stack_5_block0_MB_dw_[0][0]      
__________________________________________________________________________________________________
stack_5_block0_MB_dw_swish (Act (None, 9, 9, 720)    0           stack_5_block0_MB_dw_bn[0][0]    
__________________________________________________________________________________________________
tf_op_layer_Mean_10 (TensorFlow [(None, 1, 1, 720)]  0           stack_5_block0_MB_dw_swish[0][0] 
__________________________________________________________________________________________________
stack_5_block0_se_1_conv (Conv2 (None, 1, 1, 30)     21630       tf_op_layer_Mean_10[0][0]        
__________________________________________________________________________________________________
activation_20 (Activation)      (None, 1, 1, 30)     0           stack_5_block0_se_1_conv[0][0]   
__________________________________________________________________________________________________
stack_5_block0_se_2_conv (Conv2 (None, 1, 1, 720)    22320       activation_20[0][0]              
__________________________________________________________________________________________________
activation_21 (Activation)      (None, 1, 1, 720)    0           stack_5_block0_se_2_conv[0][0]   
__________________________________________________________________________________________________
multiply_10 (Multiply)          (None, 9, 9, 720)    0           stack_5_block0_MB_dw_swish[0][0] 
                                                                 activation_21[0][0]              
__________________________________________________________________________________________________
stack_5_block0_MB_pw_conv (Conv (None, 9, 9, 208)    149760      multiply_10[0][0]                
__________________________________________________________________________________________________
stack_5_block0_MB_pw_bn (BatchN (None, 9, 9, 208)    832         stack_5_block0_MB_pw_conv[0][0]  
__________________________________________________________________________________________________
stack_5_block1_sortcut_conv (Co (None, 9, 9, 1248)   259584      stack_5_block0_MB_pw_bn[0][0]    
__________________________________________________________________________________________________
stack_5_block1_sortcut_bn (Batc (None, 9, 9, 1248)   4992        stack_5_block1_sortcut_conv[0][0]
__________________________________________________________________________________________________
stack_5_block1_sortcut_swish (A (None, 9, 9, 1248)   0           stack_5_block1_sortcut_bn[0][0]  
__________________________________________________________________________________________________
stack_5_block1_MB_dw_ (Depthwis (None, 9, 9, 1248)   11232       stack_5_block1_sortcut_swish[0][0
__________________________________________________________________________________________________
stack_5_block1_MB_dw_bn (BatchN (None, 9, 9, 1248)   4992        stack_5_block1_MB_dw_[0][0]      
__________________________________________________________________________________________________
stack_5_block1_MB_dw_swish (Act (None, 9, 9, 1248)   0           stack_5_block1_MB_dw_bn[0][0]    
__________________________________________________________________________________________________
tf_op_layer_Mean_11 (TensorFlow [(None, 1, 1, 1248)] 0           stack_5_block1_MB_dw_swish[0][0] 
__________________________________________________________________________________________________
stack_5_block1_se_1_conv (Conv2 (None, 1, 1, 52)     64948       tf_op_layer_Mean_11[0][0]        
__________________________________________________________________________________________________
activation_22 (Activation)      (None, 1, 1, 52)     0           stack_5_block1_se_1_conv[0][0]   
__________________________________________________________________________________________________
stack_5_block1_se_2_conv (Conv2 (None, 1, 1, 1248)   66144       activation_22[0][0]              
__________________________________________________________________________________________________
activation_23 (Activation)      (None, 1, 1, 1248)   0           stack_5_block1_se_2_conv[0][0]   
__________________________________________________________________________________________________
multiply_11 (Multiply)          (None, 9, 9, 1248)   0           stack_5_block1_MB_dw_swish[0][0] 
                                                                 activation_23[0][0]              
__________________________________________________________________________________________________
stack_5_block1_MB_pw_conv (Conv (None, 9, 9, 208)    259584      multiply_11[0][0]                
__________________________________________________________________________________________________
stack_5_block1_MB_pw_bn (BatchN (None, 9, 9, 208)    832         stack_5_block1_MB_pw_conv[0][0]  
__________________________________________________________________________________________________
add_13 (Add)                    (None, 9, 9, 208)    0           stack_5_block0_MB_pw_bn[0][0]    
                                                                 stack_5_block1_MB_pw_bn[0][0]    
__________________________________________________________________________________________________
stack_5_block2_sortcut_conv (Co (None, 9, 9, 1248)   259584      add_13[0][0]                     
__________________________________________________________________________________________________
stack_5_block2_sortcut_bn (Batc (None, 9, 9, 1248)   4992        stack_5_block2_sortcut_conv[0][0]
__________________________________________________________________________________________________
stack_5_block2_sortcut_swish (A (None, 9, 9, 1248)   0           stack_5_block2_sortcut_bn[0][0]  
__________________________________________________________________________________________________
stack_5_block2_MB_dw_ (Depthwis (None, 9, 9, 1248)   11232       stack_5_block2_sortcut_swish[0][0
__________________________________________________________________________________________________
stack_5_block2_MB_dw_bn (BatchN (None, 9, 9, 1248)   4992        stack_5_block2_MB_dw_[0][0]      
__________________________________________________________________________________________________
stack_5_block2_MB_dw_swish (Act (None, 9, 9, 1248)   0           stack_5_block2_MB_dw_bn[0][0]    
__________________________________________________________________________________________________
tf_op_layer_Mean_12 (TensorFlow [(None, 1, 1, 1248)] 0           stack_5_block2_MB_dw_swish[0][0] 
__________________________________________________________________________________________________
stack_5_block2_se_1_conv (Conv2 (None, 1, 1, 52)     64948       tf_op_layer_Mean_12[0][0]        
__________________________________________________________________________________________________
activation_24 (Activation)      (None, 1, 1, 52)     0           stack_5_block2_se_1_conv[0][0]   
__________________________________________________________________________________________________
stack_5_block2_se_2_conv (Conv2 (None, 1, 1, 1248)   66144       activation_24[0][0]              
__________________________________________________________________________________________________
activation_25 (Activation)      (None, 1, 1, 1248)   0           stack_5_block2_se_2_conv[0][0]   
__________________________________________________________________________________________________
multiply_12 (Multiply)          (None, 9, 9, 1248)   0           stack_5_block2_MB_dw_swish[0][0] 
                                                                 activation_25[0][0]              
__________________________________________________________________________________________________
stack_5_block2_MB_pw_conv (Conv (None, 9, 9, 208)    259584      multiply_12[0][0]                
__________________________________________________________________________________________________
stack_5_block2_MB_pw_bn (BatchN (None, 9, 9, 208)    832         stack_5_block2_MB_pw_conv[0][0]  
__________________________________________________________________________________________________
add_14 (Add)                    (None, 9, 9, 208)    0           add_13[0][0]                     
                                                                 stack_5_block2_MB_pw_bn[0][0]    
__________________________________________________________________________________________________
stack_5_block3_sortcut_conv (Co (None, 9, 9, 1248)   259584      add_14[0][0]                     
__________________________________________________________________________________________________
stack_5_block3_sortcut_bn (Batc (None, 9, 9, 1248)   4992        stack_5_block3_sortcut_conv[0][0]
__________________________________________________________________________________________________
stack_5_block3_sortcut_swish (A (None, 9, 9, 1248)   0           stack_5_block3_sortcut_bn[0][0]  
__________________________________________________________________________________________________
stack_5_block3_MB_dw_ (Depthwis (None, 9, 9, 1248)   11232       stack_5_block3_sortcut_swish[0][0
__________________________________________________________________________________________________
stack_5_block3_MB_dw_bn (BatchN (None, 9, 9, 1248)   4992        stack_5_block3_MB_dw_[0][0]      
__________________________________________________________________________________________________
stack_5_block3_MB_dw_swish (Act (None, 9, 9, 1248)   0           stack_5_block3_MB_dw_bn[0][0]    
__________________________________________________________________________________________________
tf_op_layer_Mean_13 (TensorFlow [(None, 1, 1, 1248)] 0           stack_5_block3_MB_dw_swish[0][0] 
__________________________________________________________________________________________________
stack_5_block3_se_1_conv (Conv2 (None, 1, 1, 52)     64948       tf_op_layer_Mean_13[0][0]        
__________________________________________________________________________________________________
activation_26 (Activation)      (None, 1, 1, 52)     0           stack_5_block3_se_1_conv[0][0]   
__________________________________________________________________________________________________
stack_5_block3_se_2_conv (Conv2 (None, 1, 1, 1248)   66144       activation_26[0][0]              
__________________________________________________________________________________________________
activation_27 (Activation)      (None, 1, 1, 1248)   0           stack_5_block3_se_2_conv[0][0]   
__________________________________________________________________________________________________
multiply_13 (Multiply)          (None, 9, 9, 1248)   0           stack_5_block3_MB_dw_swish[0][0] 
                                                                 activation_27[0][0]              
__________________________________________________________________________________________________
stack_5_block3_MB_pw_conv (Conv (None, 9, 9, 208)    259584      multiply_13[0][0]                
__________________________________________________________________________________________________
stack_5_block3_MB_pw_bn (BatchN (None, 9, 9, 208)    832         stack_5_block3_MB_pw_conv[0][0]  
__________________________________________________________________________________________________
add_15 (Add)                    (None, 9, 9, 208)    0           add_14[0][0]                     
                                                                 stack_5_block3_MB_pw_bn[0][0]    
__________________________________________________________________________________________________
stack_5_block4_sortcut_conv (Co (None, 9, 9, 1248)   259584      add_15[0][0]                     
__________________________________________________________________________________________________
stack_5_block4_sortcut_bn (Batc (None, 9, 9, 1248)   4992        stack_5_block4_sortcut_conv[0][0]
__________________________________________________________________________________________________
stack_5_block4_sortcut_swish (A (None, 9, 9, 1248)   0           stack_5_block4_sortcut_bn[0][0]  
__________________________________________________________________________________________________
stack_5_block4_MB_dw_ (Depthwis (None, 9, 9, 1248)   11232       stack_5_block4_sortcut_swish[0][0
__________________________________________________________________________________________________
stack_5_block4_MB_dw_bn (BatchN (None, 9, 9, 1248)   4992        stack_5_block4_MB_dw_[0][0]      
__________________________________________________________________________________________________
stack_5_block4_MB_dw_swish (Act (None, 9, 9, 1248)   0           stack_5_block4_MB_dw_bn[0][0]    
__________________________________________________________________________________________________
tf_op_layer_Mean_14 (TensorFlow [(None, 1, 1, 1248)] 0           stack_5_block4_MB_dw_swish[0][0] 
__________________________________________________________________________________________________
stack_5_block4_se_1_conv (Conv2 (None, 1, 1, 52)     64948       tf_op_layer_Mean_14[0][0]        
__________________________________________________________________________________________________
activation_28 (Activation)      (None, 1, 1, 52)     0           stack_5_block4_se_1_conv[0][0]   
__________________________________________________________________________________________________
stack_5_block4_se_2_conv (Conv2 (None, 1, 1, 1248)   66144       activation_28[0][0]              
__________________________________________________________________________________________________
activation_29 (Activation)      (None, 1, 1, 1248)   0           stack_5_block4_se_2_conv[0][0]   
__________________________________________________________________________________________________
multiply_14 (Multiply)          (None, 9, 9, 1248)   0           stack_5_block4_MB_dw_swish[0][0] 
                                                                 activation_29[0][0]              
__________________________________________________________________________________________________
stack_5_block4_MB_pw_conv (Conv (None, 9, 9, 208)    259584      multiply_14[0][0]                
__________________________________________________________________________________________________
stack_5_block4_MB_pw_bn (BatchN (None, 9, 9, 208)    832         stack_5_block4_MB_pw_conv[0][0]  
__________________________________________________________________________________________________
add_16 (Add)                    (None, 9, 9, 208)    0           add_15[0][0]                     
                                                                 stack_5_block4_MB_pw_bn[0][0]    
__________________________________________________________________________________________________
stack_5_block5_sortcut_conv (Co (None, 9, 9, 1248)   259584      add_16[0][0]                     
__________________________________________________________________________________________________
stack_5_block5_sortcut_bn (Batc (None, 9, 9, 1248)   4992        stack_5_block5_sortcut_conv[0][0]
__________________________________________________________________________________________________
stack_5_block5_sortcut_swish (A (None, 9, 9, 1248)   0           stack_5_block5_sortcut_bn[0][0]  
__________________________________________________________________________________________________
stack_5_block5_MB_dw_ (Depthwis (None, 9, 9, 1248)   11232       stack_5_block5_sortcut_swish[0][0
__________________________________________________________________________________________________
stack_5_block5_MB_dw_bn (BatchN (None, 9, 9, 1248)   4992        stack_5_block5_MB_dw_[0][0]      
__________________________________________________________________________________________________
stack_5_block5_MB_dw_swish (Act (None, 9, 9, 1248)   0           stack_5_block5_MB_dw_bn[0][0]    
__________________________________________________________________________________________________
tf_op_layer_Mean_15 (TensorFlow [(None, 1, 1, 1248)] 0           stack_5_block5_MB_dw_swish[0][0] 
__________________________________________________________________________________________________
stack_5_block5_se_1_conv (Conv2 (None, 1, 1, 52)     64948       tf_op_layer_Mean_15[0][0]        
__________________________________________________________________________________________________
activation_30 (Activation)      (None, 1, 1, 52)     0           stack_5_block5_se_1_conv[0][0]   
__________________________________________________________________________________________________
stack_5_block5_se_2_conv (Conv2 (None, 1, 1, 1248)   66144       activation_30[0][0]              
__________________________________________________________________________________________________
activation_31 (Activation)      (None, 1, 1, 1248)   0           stack_5_block5_se_2_conv[0][0]   
__________________________________________________________________________________________________
multiply_15 (Multiply)          (None, 9, 9, 1248)   0           stack_5_block5_MB_dw_swish[0][0] 
                                                                 activation_31[0][0]              
__________________________________________________________________________________________________
stack_5_block5_MB_pw_conv (Conv (None, 9, 9, 208)    259584      multiply_15[0][0]                
__________________________________________________________________________________________________
stack_5_block5_MB_pw_bn (BatchN (None, 9, 9, 208)    832         stack_5_block5_MB_pw_conv[0][0]  
__________________________________________________________________________________________________
add_17 (Add)                    (None, 9, 9, 208)    0           add_16[0][0]                     
                                                                 stack_5_block5_MB_pw_bn[0][0]    
__________________________________________________________________________________________________
stack_5_block6_sortcut_conv (Co (None, 9, 9, 1248)   259584      add_17[0][0]                     
__________________________________________________________________________________________________
stack_5_block6_sortcut_bn (Batc (None, 9, 9, 1248)   4992        stack_5_block6_sortcut_conv[0][0]
__________________________________________________________________________________________________
stack_5_block6_sortcut_swish (A (None, 9, 9, 1248)   0           stack_5_block6_sortcut_bn[0][0]  
__________________________________________________________________________________________________
stack_5_block6_MB_dw_ (Depthwis (None, 9, 9, 1248)   11232       stack_5_block6_sortcut_swish[0][0
__________________________________________________________________________________________________
stack_5_block6_MB_dw_bn (BatchN (None, 9, 9, 1248)   4992        stack_5_block6_MB_dw_[0][0]      
__________________________________________________________________________________________________
stack_5_block6_MB_dw_swish (Act (None, 9, 9, 1248)   0           stack_5_block6_MB_dw_bn[0][0]    
__________________________________________________________________________________________________
tf_op_layer_Mean_16 (TensorFlow [(None, 1, 1, 1248)] 0           stack_5_block6_MB_dw_swish[0][0] 
__________________________________________________________________________________________________
stack_5_block6_se_1_conv (Conv2 (None, 1, 1, 52)     64948       tf_op_layer_Mean_16[0][0]        
__________________________________________________________________________________________________
activation_32 (Activation)      (None, 1, 1, 52)     0           stack_5_block6_se_1_conv[0][0]   
__________________________________________________________________________________________________
stack_5_block6_se_2_conv (Conv2 (None, 1, 1, 1248)   66144       activation_32[0][0]              
__________________________________________________________________________________________________
activation_33 (Activation)      (None, 1, 1, 1248)   0           stack_5_block6_se_2_conv[0][0]   
__________________________________________________________________________________________________
multiply_16 (Multiply)          (None, 9, 9, 1248)   0           stack_5_block6_MB_dw_swish[0][0] 
                                                                 activation_33[0][0]              
__________________________________________________________________________________________________
stack_5_block6_MB_pw_conv (Conv (None, 9, 9, 208)    259584      multiply_16[0][0]                
__________________________________________________________________________________________________
stack_5_block6_MB_pw_bn (BatchN (None, 9, 9, 208)    832         stack_5_block6_MB_pw_conv[0][0]  
__________________________________________________________________________________________________
add_18 (Add)                    (None, 9, 9, 208)    0           add_17[0][0]                     
                                                                 stack_5_block6_MB_pw_bn[0][0]    
__________________________________________________________________________________________________
stack_5_block7_sortcut_conv (Co (None, 9, 9, 1248)   259584      add_18[0][0]                     
__________________________________________________________________________________________________
stack_5_block7_sortcut_bn (Batc (None, 9, 9, 1248)   4992        stack_5_block7_sortcut_conv[0][0]
__________________________________________________________________________________________________
stack_5_block7_sortcut_swish (A (None, 9, 9, 1248)   0           stack_5_block7_sortcut_bn[0][0]  
__________________________________________________________________________________________________
stack_5_block7_MB_dw_ (Depthwis (None, 9, 9, 1248)   11232       stack_5_block7_sortcut_swish[0][0
__________________________________________________________________________________________________
stack_5_block7_MB_dw_bn (BatchN (None, 9, 9, 1248)   4992        stack_5_block7_MB_dw_[0][0]      
__________________________________________________________________________________________________
stack_5_block7_MB_dw_swish (Act (None, 9, 9, 1248)   0           stack_5_block7_MB_dw_bn[0][0]    
__________________________________________________________________________________________________
tf_op_layer_Mean_17 (TensorFlow [(None, 1, 1, 1248)] 0           stack_5_block7_MB_dw_swish[0][0] 
__________________________________________________________________________________________________
stack_5_block7_se_1_conv (Conv2 (None, 1, 1, 52)     64948       tf_op_layer_Mean_17[0][0]        
__________________________________________________________________________________________________
activation_34 (Activation)      (None, 1, 1, 52)     0           stack_5_block7_se_1_conv[0][0]   
__________________________________________________________________________________________________
stack_5_block7_se_2_conv (Conv2 (None, 1, 1, 1248)   66144       activation_34[0][0]              
__________________________________________________________________________________________________
activation_35 (Activation)      (None, 1, 1, 1248)   0           stack_5_block7_se_2_conv[0][0]   
__________________________________________________________________________________________________
multiply_17 (Multiply)          (None, 9, 9, 1248)   0           stack_5_block7_MB_dw_swish[0][0] 
                                                                 activation_35[0][0]              
__________________________________________________________________________________________________
stack_5_block7_MB_pw_conv (Conv (None, 9, 9, 208)    259584      multiply_17[0][0]                
__________________________________________________________________________________________________
stack_5_block7_MB_pw_bn (BatchN (None, 9, 9, 208)    832         stack_5_block7_MB_pw_conv[0][0]  
__________________________________________________________________________________________________
add_19 (Add)                    (None, 9, 9, 208)    0           add_18[0][0]                     
                                                                 stack_5_block7_MB_pw_bn[0][0]    
__________________________________________________________________________________________________
stack_5_block8_sortcut_conv (Co (None, 9, 9, 1248)   259584      add_19[0][0]                     
__________________________________________________________________________________________________
stack_5_block8_sortcut_bn (Batc (None, 9, 9, 1248)   4992        stack_5_block8_sortcut_conv[0][0]
__________________________________________________________________________________________________
stack_5_block8_sortcut_swish (A (None, 9, 9, 1248)   0           stack_5_block8_sortcut_bn[0][0]  
__________________________________________________________________________________________________
stack_5_block8_MB_dw_ (Depthwis (None, 9, 9, 1248)   11232       stack_5_block8_sortcut_swish[0][0
__________________________________________________________________________________________________
stack_5_block8_MB_dw_bn (BatchN (None, 9, 9, 1248)   4992        stack_5_block8_MB_dw_[0][0]      
__________________________________________________________________________________________________
stack_5_block8_MB_dw_swish (Act (None, 9, 9, 1248)   0           stack_5_block8_MB_dw_bn[0][0]    
__________________________________________________________________________________________________
tf_op_layer_Mean_18 (TensorFlow [(None, 1, 1, 1248)] 0           stack_5_block8_MB_dw_swish[0][0] 
__________________________________________________________________________________________________
stack_5_block8_se_1_conv (Conv2 (None, 1, 1, 52)     64948       tf_op_layer_Mean_18[0][0]        
__________________________________________________________________________________________________
activation_36 (Activation)      (None, 1, 1, 52)     0           stack_5_block8_se_1_conv[0][0]   
__________________________________________________________________________________________________
stack_5_block8_se_2_conv (Conv2 (None, 1, 1, 1248)   66144       activation_36[0][0]              
__________________________________________________________________________________________________
activation_37 (Activation)      (None, 1, 1, 1248)   0           stack_5_block8_se_2_conv[0][0]   
__________________________________________________________________________________________________
multiply_18 (Multiply)          (None, 9, 9, 1248)   0           stack_5_block8_MB_dw_swish[0][0] 
                                                                 activation_37[0][0]              
__________________________________________________________________________________________________
stack_5_block8_MB_pw_conv (Conv (None, 9, 9, 208)    259584      multiply_18[0][0]                
__________________________________________________________________________________________________
stack_5_block8_MB_pw_bn (BatchN (None, 9, 9, 208)    832         stack_5_block8_MB_pw_conv[0][0]  
__________________________________________________________________________________________________
add_20 (Add)                    (None, 9, 9, 208)    0           add_19[0][0]                     
                                                                 stack_5_block8_MB_pw_bn[0][0]    
__________________________________________________________________________________________________
stack_5_block9_sortcut_conv (Co (None, 9, 9, 1248)   259584      add_20[0][0]                     
__________________________________________________________________________________________________
stack_5_block9_sortcut_bn (Batc (None, 9, 9, 1248)   4992        stack_5_block9_sortcut_conv[0][0]
__________________________________________________________________________________________________
stack_5_block9_sortcut_swish (A (None, 9, 9, 1248)   0           stack_5_block9_sortcut_bn[0][0]  
__________________________________________________________________________________________________
stack_5_block9_MB_dw_ (Depthwis (None, 9, 9, 1248)   11232       stack_5_block9_sortcut_swish[0][0
__________________________________________________________________________________________________
stack_5_block9_MB_dw_bn (BatchN (None, 9, 9, 1248)   4992        stack_5_block9_MB_dw_[0][0]      
__________________________________________________________________________________________________
stack_5_block9_MB_dw_swish (Act (None, 9, 9, 1248)   0           stack_5_block9_MB_dw_bn[0][0]    
__________________________________________________________________________________________________
tf_op_layer_Mean_19 (TensorFlow [(None, 1, 1, 1248)] 0           stack_5_block9_MB_dw_swish[0][0] 
__________________________________________________________________________________________________
stack_5_block9_se_1_conv (Conv2 (None, 1, 1, 52)     64948       tf_op_layer_Mean_19[0][0]        
__________________________________________________________________________________________________
activation_38 (Activation)      (None, 1, 1, 52)     0           stack_5_block9_se_1_conv[0][0]   
__________________________________________________________________________________________________
stack_5_block9_se_2_conv (Conv2 (None, 1, 1, 1248)   66144       activation_38[0][0]              
__________________________________________________________________________________________________
activation_39 (Activation)      (None, 1, 1, 1248)   0           stack_5_block9_se_2_conv[0][0]   
__________________________________________________________________________________________________
multiply_19 (Multiply)          (None, 9, 9, 1248)   0           stack_5_block9_MB_dw_swish[0][0] 
                                                                 activation_39[0][0]              
__________________________________________________________________________________________________
stack_5_block9_MB_pw_conv (Conv (None, 9, 9, 208)    259584      multiply_19[0][0]                
__________________________________________________________________________________________________
stack_5_block9_MB_pw_bn (BatchN (None, 9, 9, 208)    832         stack_5_block9_MB_pw_conv[0][0]  
__________________________________________________________________________________________________
add_21 (Add)                    (None, 9, 9, 208)    0           add_20[0][0]                     
                                                                 stack_5_block9_MB_pw_bn[0][0]    
__________________________________________________________________________________________________
post_conv (Conv2D)              (None, 9, 9, 1408)   292864      add_21[0][0]                     
__________________________________________________________________________________________________
post_bn (BatchNormalization)    (None, 9, 9, 1408)   5632        post_conv[0][0]                  
__________________________________________________________________________________________________
post_swish (Activation)         (None, 9, 9, 1408)   0           post_bn[0][0]                    
__________________________________________________________________________________________________
lambda_layer (LambdaLayer)      (None, 9, 9, 1408)   2984256     post_swish[0][0]                 
__________________________________________________________________________________________________
global_average_pooling2d (Globa (None, 1408)         0           lambda_layer[0][0]               
__________________________________________________________________________________________________
batch_normalization_2 (BatchNor (None, 1408)         5632        global_average_pooling2d[0][0]   
__________________________________________________________________________________________________
input_1 (InputLayer)            [(None, 11)]         0                                            
__________________________________________________________________________________________________
arc_face (ArcFace)              (None, 11)           15488       batch_normalization_2[0][0]      
                                                                 input_1[0][0]                    
==================================================================================================
Total params: 11,774,750
Trainable params: 11,686,126
Non-trainable params: 88,624
__________________________________________________________________________________________________
…
